policy_reinforce_gcn_lstm/save/model_trial_32_h3_lr0.00128_g0.918.pth (torch, 4159 bytes, 11 tensors)

conv1.bias f4 [3]
000000 a1 52 97 3d 8f 39 40 3c 98 5a 13 bd
       0.07388807 0.011732473 -0.03597507

conv1.lin.weight f4 [3, 3]
000000 45 87 d0 be a9 30 e0 3e 58 fe 93 3e fb 88 38 bf
       -0.40728202 0.43787125 0.28904986 -0.72084016
000010 d4 8b 21 3f f2 eb a0 3e d9 d4 c5 be af 1a d7 3e
       0.63103986 0.31430012 -0.38638952 0.42012545
000020 ec 5c 56 bf
       -0.8373554

lstm.weight_ih_l0 f4 [12, 3]
000000 ec eb ef be 84 fe 23 3f 0c 24 00 3f 3e 2c 80 3e
       -0.46859682 0.64060235 0.50055003 0.25033754
000010 2b c5 d0 3e f9 89 74 be e9 6e 0a 3f 1c 56 db 3e
       0.40775427 -0.23880757 0.54075485 0.42839134
000020 37 3c 42 3e c5 43 19 bc 65 46 f7 bd fa 03 e2 be
       0.18968283 -0.009354536 -0.120739736 -0.4414366
000030 dd fa 87 3d 0c 08 4d 3e d3 16 ca be a7 26 82 3e
       0.06639645 0.20022601 -0.39470538 0.25420114
000040 6c b0 4b 3e 71 a0 fa 3e 19 28 84 3e 66 a1 c5 3e
       0.19891518 0.48950532 0.25811842 0.385997
000050 8f 08 5a 3e 11 e1 f4 3e 8c 80 dc bd 44 f6 48 bd
       0.21292327 0.47827962 -0.10766706 -0.049062982
000060 dc 5b 13 3f 92 27 00 3f 1b 2c f8 3d b3 27 ab 3e
       0.5756204 0.5006038 0.121177875 0.33428726
000070 eb 3c 80 be a1 76 bb bd c6 46 8a 3e 9a 60 8f 3e
       -0.25046477 -0.09153486 0.2700712 0.2800339
000080 04 76 d6 3d 47 28 7d be b3 89 8c 3e cf d1 c0 3e
       0.104717284 -0.24722396 0.27448806 0.3766007

lstm.weight_hh_l0 f4 [12, 3]
000000 35 b5 8b 3e 7b f3 e7 bd 22 de 89 be 1f 50 d2 bd
       0.27286687 -0.11325737 -0.26927286 -0.10269188
000010 03 42 eb 3e 82 dc 9a be 3d b6 07 be 67 89 de 3e
       0.459488 -0.3024636 -0.13253112 0.43464205
000020 88 8d 14 3e 3b cf a0 3d 10 24 06 3f a8 6c 03 3f
       0.14507115 0.07852026 0.52398777 0.5133767
000030 8d 92 d7 3e b3 7d a3 3d 50 63 ea 3e 4f 3b 77 3e
       0.42103997 0.079829596 0.45778894 0.24143718
000040 a6 eb b1 bd a5 4b ab be 9b d6 8b 3e 32 7f 08 3f
       -0.086875245 -0.3345615 0.27312168 0.53319085
000050 b6 34 0a 3f 92 62 97 be da 5d f0 be 74 ae cb be
       0.5398668 -0.2956739 -0.46946603 -0.39781535
000060 00 94 7d be d8 d0 08 bf b2 79 80 be 5a ab 0e 3f
       -0.24763489 -0.5344367 -0.25092846 0.5573021
000070 58 cf 29 be 59 f4 41 3e a5 c1 44 3c 83 84 c7 3e
       -0.16583002 0.18940867 0.012009059 0.38968286
000080 ce e5 07 3f e2 1f 06 bf a1 51 c1 be 5a 20 f4 3e
       0.5308503 -0.523924 -0.3775759 0.47680932

lstm.bias_ih_l0 f4 [12]
000000 bd 75 e2 3d 02 b7 07 3f 39 e9 ff 3e f4 71 51 3e
       0.11057613 0.5301362 0.49982622 0.20453626
000010 4d 50 c6 3d a2 27 53 3e 1c cb 89 bc 4f a0 88 3d
       0.09683285 0.20620587 -0.016820483 0.066712014
000020 d1 e3 7b be 13 c0 9b 3e 0a fe 50 bc a1 93 00 3f
       -0.24598624 0.30419978 -0.01275588 0.50225264

lstm.bias_hh_l0 f4 [12]
000000 62 d5 0a be ca 26 ee 3e dc 2f 0c bf dd e9 ad 3d
       -0.13557962 0.4651397 -0.5476053 0.084918715
000010 15 4b 95 3e 8f ba 40 bc f7 57 58 be c1 b3 d9 3e
       0.29158846 -0.011763229 -0.21127306 0.42519954
000020 48 db 3c be 37 6d 2c 3e 76 5e fe 3e b1 bb ad 3e
       -0.18443024 0.16838537 0.49681443 0.3393226

lstm.weight_ih_l1 f4 [12, 3]
000000 79 07 b6 be d6 b9 06 3f c5 5b 91 3e 1f 51 79 3e
       -0.35552576 0.52627313 0.28390327 0.24347351
000010 58 8b 6a 3d 34 b3 f4 3d 51 6d b9 be df 6f 05 3f
       0.057261795 0.11948243 -0.36216214 0.52123827
000020 63 6c bb bd 6c 8c 65 be 48 e7 9c 3e 85 f1 11 3d
       -0.091515325 -0.22416848 0.30645204 0.03563072
000030 5f 08 84 3e 8f e4 7f 3e 29 7a fe be 92 c7 dd 3e
       0.25787637 0.24989532 -0.49702576 0.43316323
000040 a3 2f f8 3e 28 b6 d2 3e cd e8 48 be 5f 9a 02 bd
       0.48473844 0.411546 -0.19620056 -0.0318855
000050 e5 b8 20 bf 02 68 1c bf 34 a4 ba bd 79 d9 07 bf
       -0.62782127 -0.61096203 -0.091133505 -0.5306621
000060 ec 1e 7b be 9d d9 b2 3e 88 b5 1e bf aa 27 0c 3f
       -0.24523515 0.3493165 -0.61995745 0.5474802
000070 0c 0b c1 be fd 67 7b 3e f4 2a 1d 3f 6e e3 f5 3e
       -0.3770374 0.24551387 0.61393666 0.48025078
000080 e5 1b 07 3f 8e 4d 5f be 77 fa 22 3c ff 5c d0 be
       0.5277694 -0.21806929 0.009947411 -0.4069595

lstm.weight_hh_l1 f4 [12, 3]
000000 c4 b0 3b bd c0 8c fa be d3 17 63 3e f0 ba 8a be
       -0.045822874 -0.4893551 0.22177057 -0.27095747
000010 c9 f8 cd be 03 da e7 3e 43 c5 00 3f b8 89 da bb
       -0.4022887 0.45283517 0.50301 -0.0066692494
000020 b0 7a 21 bf c3 38 97 3e 50 1b 32 bf 2f 54 43 be
       -0.6307783 0.29535493 -0.69572926 -0.19075082
000030 5b b4 ac 3e cb 59 42 3e d7 fd 98 be 8b 9e 8b 3e
       0.3373135 0.18979566 -0.29881164 0.27269396
000040 6d 0e d9 3e 7a 51 08 bf a9 fe 10 3f 68 f4 cd 3d
       0.42393818 -0.53249323 0.5663858 0.100563824
000050 9e c9 c7 be a3 cc d6 3e 12 ea a8 be d3 3f c1 be
       -0.3902101 0.41953 -0.3299108 -0.37744007
000060 f1 7c 41 3d 3d ea 02 bd e8 7c 44 bd 2d 67 04 bd
       0.047238294 -0.03196167 -0.047970682 -0.03232496
000070 cc ab 2d bf 2a 72 a4 3e 87 65 a3 3e 94 60 3a 3e
       -0.67840266 0.3211835 0.31913397 0.18200904
000080 3f b8 b8 bd 1a 1e 81 be 86 bc 1b be 34 c4 a1 be
       -0.09019517 -0.25218278 -0.15208635 -0.31595004

lstm.bias_ih_l1 f4 [12]
000000 ea c2 b0 be e2 56 1e be f1 51 ab be 6b d3 2f be
       -0.34523708 -0.1546283 -0.33460954 -0.17170493
000010 90 db 08 be 7b 72 96 be d1 d5 aa be b9 87 ff be
       -0.13365006 -0.29384217 -0.33366254 -0.49908236
000020 54 f7 90 3c a9 b0 71 3e 70 1b 01 be c2 82 1e bf
       0.01769606 0.23602547 -0.12608123 -0.6191827

lstm.bias_hh_l1 f4 [12]
000000 f5 b0 1d 3f 54 59 bd 3e ad c1 45 be 57 7b 10 3f
       0.6159814 0.36982214 -0.19312163 0.564382
000010 10 7b 8a 3d 6b 5f b8 be ca 56 1f bf 4a 76 29 bf
       0.067617536 -0.36010298 -0.62241805 -0.6619612
000020 54 a3 9b ba dc a3 f0 bd 01 5e ce bd 71 ca ba 3e
       -0.0011874237 -0.11750004 -0.100765236 0.36482576

fc.weight f4 [1, 3]
000000 04 14 8a 3d e4 93 fd be de 7c c9 3e
       0.06742099 -0.49526894 0.3935308
