policy_reinforce_gcn_lstm/save/model_trial_260_h3_lr0.00096_g0.971.pth (torch, 4920 bytes, 13 tensors)

conv1.bias f4 [3]
000000 dd 3e aa bd b1 1a 9c bd eb 15 12 3c
       -0.083127715 -0.076222785 0.008916358

conv1.lin.weight f4 [3, 4]
000000 9f b7 c0 be 20 6b 62 bf 44 b1 2f 3f a2 de 6d bf
       -0.37640092 -0.8844471 0.6862986 -0.92917836
000010 7e 0a b5 3e 4c f1 24 3f 56 b4 7b 3d e1 fd c0 3d
       0.35359567 0.6443069 0.06145128 0.094234236
000020 36 9f 2f bf 29 e4 8b be 84 96 00 3f 21 50 4c 3e
       -0.6860231 -0.2732251 0.5022967 0.19952442

conv2.bias f4 [3]
000000 00 00 00 00 00 00 00 00 00 00 00 00
       0.0 0.0 0.0

conv2.lin.weight f4 [3, 3]
000000 78 34 40 3e 10 18 ab 3d a6 35 7a bf 0e 1f 2d bf
       0.18770015 0.08354199 -0.9773811 -0.6762551
000010 18 67 30 be ba b5 27 3f 30 c4 91 bd 30 21 b1 bd
       -0.17226827 0.6551167 -0.07117498 -0.08648908
000020 d8 36 64 be
       -0.22286546

lstm.weight_ih_l0 f4 [12, 3]
000000 f3 4c 89 be 2d 9f 9c bd de 73 a6 3b bd a9 a0 be
       -0.2681652 -0.07647548 0.0050797304 -0.313795
000010 0f 20 00 bf 57 ad 82 be b5 df c3 3e b6 1f 47 be
       -0.5004892 -0.25522873 0.38256612 -0.1944569
000020 30 92 9b 3d 39 14 77 be 9d 65 01 bf 7f 87 d3 be
       0.075962424 -0.24128808 -0.50545675 -0.41314313
000030 89 24 c8 bd e8 4b 89 3e 5c b8 81 3e c8 cd e5 be
       -0.097725935 0.26815724 0.25335968 -0.4488356
000040 39 3c 62 3e 89 cb 64 bd 12 92 33 bc c6 54 90 3e
       0.22093286 -0.05585817 -0.010960119 0.28189677
000050 5a 47 29 be 9d db a6 3e 7e 20 f2 3e b3 dc 30 be
       -0.16531125 0.32589427 0.47290415 -0.1727169
000060 ea 84 0d bf 22 22 86 3e dd 21 60 be 84 2a 14 bf
       -0.55280936 0.26197916 -0.21887918 -0.57877374
000070 19 77 b4 be fc 4b 68 3e e5 71 41 3e 9f 10 0a 3f
       -0.35247114 0.22685236 0.18891104 0.5393161
000080 0f 9d 0d bf f9 9a 96 bd 2b c5 03 3f f8 98 a3 3e
       -0.5531778 -0.073537774 0.5147273 0.31952643

lstm.weight_hh_l0 f4 [12, 3]
000000 e4 8f 63 3d 05 51 17 3f 82 3a 0f 3f ba 2b 1d be
       0.055557147 0.59108 0.5594865 -0.15348712
000010 26 7f 24 3e 43 03 09 3f 22 81 9e 3c 73 5c 98 3e
       0.16064128 0.535206 0.019348685 0.29758033
000020 8a 39 13 be 28 f8 ad be 0a 58 e5 3d 0b a8 e2 3e
       -0.14377418 -0.3397839 0.11198433 0.44268832
000030 81 bb 24 3c 23 3d de be 42 27 0b bf d9 86 4a 3d
       0.01005447 -0.4340602 -0.5435678 0.049445007
000040 39 7a 01 3f 47 99 24 be 4b 1a d3 3b 27 2a 37 be
       0.5057712 -0.16074096 0.0064423434 -0.17887174
000050 4e 2f c7 3e 38 0f e9 be 04 ce 29 be da 99 24 3e
       0.38903278 -0.45519423 -0.16582495 0.16074315
000060 09 12 13 bf 92 a5 2c be ee 2f 0b 3e 75 ec 9f 3e
       -0.57449394 -0.16860035 0.13592502 0.3123509
000070 64 01 a4 3e f4 5d 15 3f 8f 78 11 bf d4 e0 f4 3e
       0.3203231 0.58346486 -0.5682458 0.4782778
000080 b6 42 bb be 69 e7 a7 3e 73 f8 bd be 85 84 f1 be
       -0.36574334 0.3279374 -0.37103614 -0.47171417

lstm.bias_ih_l0 f4 [12]
000000 c6 5a 27 bd 87 30 93 3d 06 93 ec bd 18 cd b0 3e
       -0.040858053 0.0718699 -0.1155148 0.34531474
000010 fa 91 07 be 5f 37 e3 3e 25 34 a8 3e d6 ec e5 3e
       -0.1323928 0.44378182 0.32852283 0.44907254
000020 ea 0d 9f be 26 89 ec bd 20 09 11 3e 6a 11 fa 3e
       -0.31065303 -0.115495965 0.14163637 0.4884141

lstm.bias_hh_l0 f4 [12]
000000 7b bb 4a be 80 64 cf 3e b8 92 f4 3e ec 65 17 3f
       -0.1979808 0.40506363 0.47768188 0.59139895
000010 d2 15 e4 3e ad 5b 01 3f b6 81 06 bf 2f 6a 8b be
       0.44547898 0.5053051 -0.52541673 -0.2722945
000020 34 cc a4 be 0d a2 59 3e 42 96 4f be 37 ac ec 3e
       -0.32187045 0.21253224 -0.20272163 0.4622514

lstm.weight_ih_l1 f4 [12, 3]
000000 16 05 c5 3e 28 16 12 3e 97 f6 b8 be bb 46 a0 3e
       0.38480443 0.14266264 -0.36125633 0.31303963
000010 e9 ba bd bc 7a 1c 04 bf 0c 93 b3 3e 51 33 27 3f
       -0.023160415 -0.5160595 0.35073125 0.6531268
000020 4b 94 f1 bd a9 dc 7c 3e 59 0b e0 3e 5f 60 b4 be
       -0.11795863 0.2469355 0.43758658 -0.35229775
000030 56 9b ac be e4 5d 02 3f a1 f6 94 be c6 92 a4 be
       -0.33712262 0.50924516 -0.29094413 -0.3214323
000040 66 bf 44 be 9a 15 63 3e ed 63 18 3f 82 ca 83 bd
       -0.19213638 0.22176209 0.59527475 -0.0643511
000050 6a 09 74 3d e2 8d e6 be 8f 33 cf be ef 35 8f 3e
       0.05957929 -0.45030123 -0.40469024 0.27970836
000060 8a 14 23 3e f2 0c f6 3e 8c 95 be 3e 25 2c 87 be
       0.15925804 0.4805675 0.3722347 -0.26400867
000070 3c d5 11 3f f2 24 9e be 04 b6 e1 bd 45 8b 03 3f
       0.56965995 -0.30887562 -0.11021045 0.51384383
000080 ed 2f 0c bf 6d 29 1e 3f b7 d7 2f 3f cd 5b ba be
       -0.5476063 0.6178196 0.6868853 -0.36398163

lstm.weight_hh_l1 f4 [12, 3]
000000 be 8a 1f be 4a 3e 13 3e 73 f1 39 3e a1 33 5a 3e
       -0.1558027 0.1437923 0.18158512 0.21308757
000010 24 38 64 3e 13 28 27 3f 42 ea 02 3f 8b 42 d2 bd
       0.22287041 0.65295523 0.511387 -0.10266598
000020 96 9e 4d 3e 2d 69 c6 be 6c 71 d3 be d6 f3 cf be
       0.20080027 -0.38752118 -0.41297472 -0.4061572
000030 d6 da 6b 3d e8 73 22 bf 8c 76 83 3e 74 aa a3 3e
       0.057581745 -0.6345811 0.25676382 0.31965983
000040 a2 db 94 be 1a d3 b9 be 98 84 2c 3e be 11 ba 3e
       -0.29073817 -0.3629387 0.16847456 0.3634166
000050 c6 c7 2d 3f 6c 79 92 3d 62 2f b7 be d4 8c 87 3e
       0.67882955 0.07152066 -0.35778338 0.2647463
000060 6a 39 30 be 32 db 81 be 69 3c 1b 3f e5 f0 5c bd
       -0.17209402 -0.25362545 0.60639054 -0.053940672
000070 ed b1 f9 be 1b 49 b4 3d 3b 88 8b be 8f 8f 3a bf
       -0.4876856 0.08803006 -0.27252373 -0.72875303
000080 09 6c 11 be fb 25 b9 3d ee c0 ce be 63 4b 06 3f
       -0.14201368 0.09040447 -0.4038157 0.5245878

lstm.bias_ih_l1 f4 [12]
000000 cf 24 b2 bd 4a b0 6b 3e 7e 8c 8e bd 71 62 53 3e
       -0.08698427 0.23016468 -0.069603905 0.20643021
000010 a9 35 e1 3e a6 29 e7 3d 45 3c a6 bd e6 12 28 3e
       0.43986252 0.11287241 -0.08116964 0.16413459
000020 cd 2f ab 3e 79 7c b8 3e 87 c9 56 3e 80 4a de 3e
       0.33434907 0.36032465 0.20975314 0.43416214

lstm.bias_hh_l1 f4 [12]
000000 c3 d2 e1 3e 82 19 30 be c3 39 13 3e f6 45 ad 3e
       0.4410611 -0.1719723 0.14377503 0.33842438
000010 67 7d a0 bc 08 d4 40 be d9 8d 07 3f d7 1d a7 be
       -0.019591046 -0.18830884 0.5295082 -0.32639953
000020 24 fa b1 3d a1 19 6e be 4d 52 18 3f f3 fe 86 be
       0.08690289 -0.23251964 0.5950058 -0.26366386

fc.weight f4 [1, 3]
000000 fb 30 94 be 71 61 dc 3e 79 ec 28 be
       -0.2894362 0.43043092 -0.16496457
