policy_reinforce_gcn_lstm/save/model_trial_134_h1_lr0.00266_g0.970.pth (torch, 4216 bytes, 9 tensors)

conv1.lin.weight f4 [1, 4]
000000 0d a2 8e bf 37 22 9e 3f 96 a3 0a bf 3d 33 4b be
       -1.1143204 1.2354192 -0.5415586 -0.19843765

lstm.weight_ih_l0 f4 [4, 1]
000000 a3 90 62 bf 32 ec f9 be 20 fe 63 bf 45 d7 ca be
       -0.8850195 -0.48813015 -0.8905964 -0.39617363

lstm.weight_hh_l0 f4 [4, 1]
000000 b2 a8 81 bf 29 8f 44 bf 6e 27 04 3f e3 d1 84 3e
       -1.0129607 -0.76780945 0.51622665 0.2594138

lstm.bias_ih_l0 f4 [4]
000000 9a 4e 72 3d 61 74 c3 3e c7 47 68 3f ed c2 2b bf
       0.05915699 0.38174728 0.90734524 -0.6709431

lstm.bias_hh_l0 f4 [4]
000000 37 cb 0c be 0a 1d 64 3f ab 5b 9b bd 87 1f 1f 3f
       -0.13749395 0.8910681 -0.07585844 0.6215748

lstm.weight_ih_l1 f4 [4, 1]
000000 3a 87 0d bf af 76 4b bf fa d9 b2 be b7 33 9c 3f
       -0.55284464 -0.7947797 -0.34931928 1.2203282

lstm.weight_hh_l1 f4 [4, 1]
000000 a7 b8 a9 be 9c bc e4 3e c5 b1 a1 3d e3 65 8a bd
       -0.3314869 0.44675148 0.07895235 -0.067577146

lstm.bias_ih_l1 f4 [4]
000000 81 86 3f 3f 58 09 f3 3e 78 31 55 3f 75 86 db 3c
       0.7481461 0.47468066 0.8327861 0.026797513

lstm.bias_hh_l1 f4 [4]
000000 09 16 51 3e ed 0e cb 3e bd 6b 85 3f 55 b5 87 3f
       0.20418562 0.39659825 1.0423504 1.0602213
