policy_reinforce_gcn_lstm/save/model_trial_648_h3_lr0.00158_g0.963.pth (torch, 4920 bytes, 13 tensors)

conv1.bias f4 [3]
000000 32 35 8e bb f3 9b 70 bc 26 e4 6f bc
       -0.0043398375 -0.014685619 -0.014641797

conv1.lin.weight f4 [3, 4]
000000 f2 ef 4e bf ad 64 8a bf 6d f6 c3 3e da b4 30 3e
       -0.8083488 -1.0811974 0.38273945 0.1725649
000010 27 ea a3 bd 68 cb 3c bf f4 6a 24 bf fc 68 8c bf
       -0.080036454 -0.73747873 -0.642257 -1.0969539
000020 cb f2 54 3f e0 03 07 bf 39 8e 95 3e 04 15 45 be
       0.8318297 -0.5274029 0.2921007 -0.19246298

conv2.bias f4 [3]
000000 00 00 00 00 00 00 00 00 00 00 00 00
       0.0 0.0 0.0

conv2.lin.weight f4 [3, 3]
000000 b8 c3 2a bf 26 4d 54 bf f4 18 7f 3f 00 f2 b1 3b
       -0.66704893 -0.8293022 0.9964745 0.00543046
000010 1c 05 0c 3f 2a dd 55 3f f8 f0 7e be 80 33 02 bf
       0.54695296 0.83540595 -0.2489661 -0.5085983
000020 e0 4d 60 bf
       -0.8761883

lstm.weight_ih_l0 f4 [12, 3]
000000 8d 1d 91 3e 19 a2 6b be e1 95 a7 be cc 68 f0 be
       0.28342858 -0.23011054 -0.32731536 -0.46954954
000010 1a 1f f6 be 38 d7 75 be 64 77 21 be 88 65 7f be
       -0.48070604 -0.2400788 -0.157682 -0.24941075
000020 04 f7 b3 be 26 1a 7e 3d e5 93 f4 3e 5f 13 a2 be
       -0.35149395 0.062036656 0.47769085 -0.31655404
000030 89 c9 d5 3d b9 a0 00 bf fa 95 0d 3f 52 64 00 bf
       0.104388304 -0.50245243 0.5530697 -0.50153077
000040 04 30 ce 3e a2 ee ea 3e 69 c9 07 3f dd 7b 9b 3e
       0.40271008 0.45885187 0.530417 0.30367938
000050 6e f0 ca be 9f bf 8f 3e 68 d8 8c 3e 7d 02 8a 3e
       -0.39636558 0.28075883 0.27508855 0.26955023
000060 97 46 f1 bd a5 ca f3 be 9f 48 b6 be c5 89 76 3d
       -0.11781042 -0.47615543 -0.3560228 0.06018998
000070 e5 0a e3 3e 1d 4c 12 bf df 5b f2 3e 4e a2 c7 3d
       0.4434425 -0.5714739 0.47335717 0.09747754
000080 bb 04 f2 3e 45 0f b8 be 77 7d 0b 3f 06 69 9b 3e
       0.47269234 -0.3594915 0.5448832 0.30353564

lstm.weight_hh_l0 f4 [12, 3]
000000 9a 27 ad be 78 a0 13 be 9c 02 98 bd 21 03 6e 3e
       -0.33819276 -0.14416683 -0.07422373 0.23243381
000010 15 81 24 3e 87 31 fd 3e d3 35 f4 3e 74 a0 81 3e
       0.16064866 0.4945185 0.47697315 0.2531773
000020 5b 92 d1 3e 35 bb 00 bf b9 04 c2 3d 64 c0 ba be
       0.40931973 -0.50285655 0.09473557 -0.36474907
000030 a9 af 6a 3e fc d5 65 be f2 00 0a bf 65 96 eb be
       0.22918572 -0.2244491 -0.5390769 -0.4601318
000040 9c a4 bd be 21 e6 cd be 64 06 b7 3d f7 1e 84 3e
       -0.3703965 -0.40214637 0.08936766 0.25804874
000050 37 16 08 3f de 15 8d be ea 79 04 bf ac 8f 34 bd
       0.531589 -0.27555746 -0.51748526 -0.04408233
000060 59 6b 10 3e 9e 04 8d 3e 1f 5e 00 3f 42 5d dd be
       0.1410345 0.27542585 0.5014362 -0.43235213
000070 6c 1a e6 be 99 e0 e4 be ef 80 49 be 45 2f f2 bd
       -0.44942033 -0.44702604 -0.1967809 -0.11825422
000080 47 5d 12 bf bc 4c 15 3f fe 78 cf 3d 44 96 ce bc
       -0.5717358 0.5832021 0.10130499 -0.025218137

lstm.bias_ih_l0 f4 [12]
000000 92 ee cd be be ce c5 3e be ff d5 3e 30 13 d6 be
       -0.40221077 0.38634294 0.41796678 -0.41811514
000010 16 d1 dd 3e 9d a1 6d 3e 49 2c 0d 3e ab 43 25 3e
       0.43323582 0.23206182 0.13786425 0.16139095
000020 ee ee 29 3e 3a 6b 6a 3d 90 ef 49 be 3a 07 b3 be
       0.1659505 0.057231165 -0.19720292 -0.3496645

lstm.bias_hh_l0 f4 [12]
000000 49 6b 0d 3f b9 c9 b6 3e c0 37 c0 be 57 3b f9 3e
       0.5524183 0.35700777 -0.37542534 0.48678085
000010 1d 19 fc be 4d 98 f2 be 82 84 11 bf 94 f6 0b bf
       -0.4923791 -0.4738182 -0.56842816 -0.54673123
000020 9a ad 01 3f 10 70 49 be b6 e7 ba be b2 75 5b bd
       0.5065552 -0.19671655 -0.36504906 -0.05357904

lstm.weight_ih_l1 f4 [12, 3]
000000 e8 ea a5 3e db d7 8e be f9 11 17 3e 3a 47 13 bf
       0.32405782 -0.2789906 0.1475295 -0.5753056
000010 ad 89 16 3e 90 36 be 3e 93 38 9f 3e 94 4c c4 be
       0.14700957 0.37151003 0.3109785 -0.38339674
000020 1e e6 11 be 8a 9f c7 bc 8d 90 60 be 01 bf 85 be
       -0.14247939 -0.024368066 -0.21930142 -0.26122287
000030 16 46 71 3e a1 19 07 bf 9a 09 24 be 0f b0 f4 be
       0.23561892 -0.5277348 -0.16019288 -0.47790572
000040 2e 63 06 bf 0e 99 bd 3e 91 f9 fe be 06 2e d8 3e
       -0.52495086 0.37030834 -0.4979978 0.42222613
000050 92 ff 74 3d 41 c1 9e bb ce 68 b4 3e f6 ee a9 be
       0.059814043 -0.004844815 0.3523621 -0.33190125
000060 a7 07 ff 3d bd 7c 24 be 3b 91 9d be 2b 28 36 be
       0.124526314 -0.16063209 -0.30774865 -0.1778876
000070 42 a6 33 3e 5a 0c 27 3f 9b 18 d3 be cb 80 98 bd
       0.17543891 0.6525322 -0.4122971 -0.0744644
000080 b7 da a7 3e 2f ab c6 3d 47 2f cb 3e 6d 79 f9 be
       0.32784054 0.097006194 0.39684507 -0.48725453

lstm.weight_hh_l1 f4 [12, 3]
000000 b0 60 9a 3e 97 6c 9e 3e 9c ef 1c bf f7 31 00 3e
       0.30151892 0.30942222 -0.61303115 0.1251906
000010 b2 99 d5 3d 28 82 28 bf 69 93 09 be 23 3f e1 be
       0.10429706 -0.658236 -0.13435139 -0.43993482
000020 dc 81 13 bf 1a 87 4c 3f 6b da 49 3e 34 10 25 3e
       -0.57620025 0.7989365 0.19712226 0.16119462
000030 4f ab 7d 3e e8 7f 11 3f 38 b9 ca be 22 d9 0c bf
       0.2477238 0.56835794 -0.39594436 -0.5501882
000040 ca e9 a9 3c de 18 ca 3d c3 b5 38 3f 59 89 50 be
       0.020741362 0.09868024 0.72152346 -0.20364894
000050 f1 8d 38 bf ee 0d 30 3f 0c 9d 4f 3d d1 ae 1f 3d
       -0.72091585 0.68771255 0.05068688 0.038985077
000060 f4 b8 bc 3d be d8 28 3e a5 84 d9 3e 5e 32 dd 3e
       0.092149645 0.1648893 0.42484012 0.4320249
000070 17 43 32 3f 0d 06 ed be 9d cd 04 3f ef d2 1a 3d
       0.6963362 -0.4629368 0.5187624 0.03779882
000080 29 67 78 be bc 65 ea be 7e 9d 1b 3f d8 7d 48 be
       -0.24258102 -0.45780742 0.6078719 -0.19579256

lstm.bias_ih_l1 f4 [12]
000000 db a0 0c 3f d2 25 d8 3d eb 4b 8b 3e 92 ac a6 3d
       0.54932946 0.10554089 0.27206358 0.08138384
000010 ca d4 5b 3e 3f 35 e5 bb c3 01 3b 3f 29 b7 4b 3f
       0.21467891 -0.006994873 0.73049563 0.79576355
000020 97 62 70 3b 09 68 17 3c a0 e6 e4 3c 78 04 8c be
       0.0036679858 0.0092411125 0.027942002 -0.2734716

lstm.bias_hh_l1 f4 [12]
000000 a4 ac 2d 3e f4 13 53 be 2f a3 01 be 40 04 64 3d
       0.16960388 -0.2061308 -0.12659906 0.055668116
000010 86 22 00 3f 66 ce f5 3e 54 73 f1 3d 5e ae 6c 3e
       0.5005268 0.48009032 0.11789575 0.23113391
000020 51 6b b3 be f5 5b 3e 3f 3b 59 22 3f b0 13 aa be
       -0.35042813 0.74359065 0.63417405 -0.33218145

fc.weight f4 [1, 3]
000000 06 16 d0 3e d0 7e 0d bd 04 a4 8f 3c
       0.40641803 -0.034544766 0.017534263
