policy_reinforce_gcn_lstm/save/model_trial_0_h1_lr0.00601_g0.941.pth (torch, 4194 bytes, 9 tensors)

conv1.lin.weight f4 [1, 4]
0	0x40083571	2.1282618
1	0xbf480127	-0.7812676
2	0x3fc0cab2	1.5061858
3	0xbf3ae677	-0.7300791

lstm.weight_ih_l0 f4 [4, 1]
0	0xbf57c53f	-0.8428535
1	0x3ea34509	0.31888607
2	0x3f55919a	0.83425295
3	0x3d33d067	0.04389992

lstm.weight_hh_l0 f4 [4, 1]
0	0xbdb1d7b8	-0.08683723
1	0xbf7c9f49	-0.9868055
2	0xbe35124c	-0.17682761
3	0xbe8cff76	-0.2753865

lstm.bias_ih_l0 f4 [4]
0	0xbe217800	-0.15768433
1	0xbf387772	-0.7205726
2	0xbe9edf6c	-0.31029832
3	0x3f4110de	0.7541636

lstm.bias_hh_l0 f4 [4]
0	0x3dddff14	0.10839668
1	0x3f600008	0.8750005
2	0xbe1f815b	-0.15576689
3	0x3f1b6dfe	0.6071471

lstm.weight_ih_l1 f4 [4, 1]
0	0x3f1fe952	0.62465394
1	0xbe398b9a	-0.1811966
2	0xbf4f5a29	-0.8099695
3	0xbf171de2	-0.5902997

lstm.weight_hh_l1 f4 [4, 1]
0	0x3e8b3de5	0.2719566
1	0x3fdc7c67	1.7225465
2	0x3ed7e647	0.42167875
3	0x3fc36127	1.5264024

lstm.bias_ih_l1 f4 [4]
0	0x3ea62cdc	0.324561
1	0x3f377220	0.71658516
2	0x3fba632b	1.4561514
3	0x3e9cbc6b	0.30612502

lstm.bias_hh_l1 f4 [4]
0	0x3fc14f5e	1.5102346
1	0x3f78a327	0.9712395
2	0x3f8c5cc2	1.0965807
3	0x3ea696c9	0.32536915
