policy_reinforce_gcn_lstm/save/model_trial_997_h3_lr0.00336_g0.962.pth (torch, 4920 bytes, 13 tensors)

conv1.bias f4 [3]
-0.048983455 0.14788349 0.057142496
00000000: e0a2 48bd c56e 173e 400e 6a3d

conv1.lin.weight f4 [3, 4]
-0.9266881 0.19529086 -0.1573339 -0.8891846 -0.118047506 -1.0902101 0.61612874 0.004726538
1.0978554 0.87442315 0.09157628 1.1546923
00000000: 6e3b 6dbf 54fa 473e 231c 21be 9aa1 63bf
00000010: e4c2 f1bd 018c 8bbf 9dba 1d3f 13e1 9a3b
00000020: 8786 8c3f 32da 5f3f 588c bb3d f5cc 933f

conv2.bias f4 [3]
0.0 0.0 0.0
00000000: 0000 0000 0000 0000 0000 0000

conv2.lin.weight f4 [3, 3]
0.8967402 0.54231536 0.7091172 -0.47677445 0.44621825 -0.89987314 0.37956488 0.10410726
-0.52691805
00000000: c490 653f 2ed5 0a3f b488 353f c81b f4be
00000010: b876 e43e 165e 66bf 5456 c23e 3036 d53d
00000020: 1ae4 06bf

lstm.weight_ih_l0 f4 [12, 3]
-0.26256007 0.12720396 -0.46373656 -0.11171251 -0.6122155 -0.17850642 -0.45625257 0.06088502
0.04143363 0.56955796 -0.31849515 -0.37015003 -0.42088804 0.06642369 0.024142561 0.3044743
0.2274415 0.37019143 0.38233888 -0.29064527 -0.33799073 0.31951356 0.1868999 0.30085614
0.50899726 -0.16578326 -0.34789836 0.24975841 -0.29976854 -0.46518797 0.45848387 -0.019906921
0.34496734 0.29290402 0.3207921 0.53110725
00000000: 466e 86be c141 023e e16e edbe 87c9 e4bd
00000010: 28ba 1cbf 63ca 36be f099 e9be 9262 793d
00000020: 4fb6 293d 8dce 113f cc11 a3be 4e84 bdbe
00000030: a37e d7be 2509 883d 9fc6 c53c 0ee4 9b3e
00000040: 6de6 683e bb89 bd3e ecc1 c33e 75cf 94be
00000050: 1f0d adbe 4897 a33e b062 3f3e d109 9a3e
00000060: a54d 023f 16c3 29be bc1f b2be abc0 7f3e
00000070: 437b 99be 1e2d eebe 66be ea3e d713 a3bc
00000080: 8f9f b03e 84f7 953e dd3e a43e a5f6 073f

lstm.weight_hh_l0 f4 [12, 3]
0.15502018 0.38392437 -0.3858499 -0.33825517 0.45693368 -0.30538005 -0.3060067 0.34509438
-0.32409602 -0.4246 0.35666427 0.4574863 -0.5332311 0.008658294 0.10077656 0.15835436
-0.2765743 -0.7226041 -0.14565949 0.23312482 0.50645983 -0.37852326 -0.17164944 -0.32463318
-0.008492793 -0.20279035 -0.4695553 -0.04828337 0.21438536 0.42154482 -0.16264956 -0.3575728
-0.61805785 0.49330214 0.62786627 -0.021588221
00000000: 9cbd 1e3e bc91 c43e 1e8e c5be c82f adbe
00000010: 36f3 e93e c65a 9cbe e9ac 9cbe 36b0 b03e
00000020: eaef a5be 2c65 d9be b39c b63e a53b ea3e
00000030: d581 08bf 84db 0d3c f163 ce3d a527 223e
00000040: 269b 8dbe 95fc 38bf c327 15be 46b8 6e3e
00000050: 5aa7 013f cdcd c1be dfc4 2fbe 5236 a6be
00000060: 5b25 0bbc 46a8 4fbe 8d69 f0be c8c4 45bd
00000070: d687 5b3e b9d4 d73e 9b8d 26be c813 b7be
00000080: 0a39 1ebf 1992 fc3e d8bb 203f c8d9 b0bc

lstm.bias_ih_l0 f4 [12]
0.34169582 0.34598586 0.19585629 -0.529892 0.4518537 -0.3345411 0.5054518 -0.1844593
-0.0008587964 -0.56657434 -0.27969143 0.48742384
00000000: c1f2 ae3e 0f25 b13e 8d8e 483e 01a7 07bf
00000010: 5e59 e73e f948 abbe 4a65 013f e6e2 3cbe
00000020: da20 61ba 040b 11bf b733 8fbe 9e8f f93e

lstm.bias_hh_l0 f4 [12]
-0.48117116 0.17550525 0.16594467 0.07549498 0.16955653 -0.20409118 -0.0630472 0.449514
0.28325513 0.031119946 0.117406644 0.30512592
00000000: 115c f6be a6b7 333e 66ed 293e 1d9d 9a3d
00000010: 3aa0 2d3e 47fd 50be e41e 81bd b326 e63e
00000020: d106 913e 42ef fe3c e572 f03d 7739 9c3e

lstm.weight_ih_l1 f4 [12, 3]
-0.48305842 0.48698488 -0.19519937 -0.42513782 0.47596955 -0.10370989 0.17653279 0.20271862
-0.7147003 0.126135 -0.21380337 -0.31344455 -0.10054918 0.5982148 -0.27766275 0.16322015
0.7674093 -0.17044729 -0.08163025 -0.082334355 -0.36760622 -0.3847347 0.35823488 0.17490847
-0.14619909 -0.10288342 0.6706402 0.21079335 0.21067558 -0.46854177 -0.33066484 0.73960507
-0.7261428 0.27466387 0.77086073 -0.003386915
00000000: 6f53 f7be 1556 f93e 58e2 47be aaab d9be
00000010: 48b2 f33e da65 d4bd 03c5 343e 7895 4f3e
00000020: 99f6 36bf 8929 013e 45ef 5abe ce7b a0be
00000030: baec cdbd 9b24 193f d029 8ebe 2f23 273e
00000040: f074 443f bc89 2ebe c32d a7bd ea9e a8bd
00000050: e236 bcbe f2fb c4be 906a b73e 351b 333e
00000060: 37b5 15be 8bb4 d2bd 13af 2b3f 36da 573e
00000070: 57bb 573e b5e4 efbe e74c a9be c256 3d3f
00000080: 7fe4 39bf bea0 8c3e 2157 453f 01f7 5dbb

lstm.weight_hh_l1 f4 [12, 3]
0.27541035 0.11959007 -0.6696521 0.54333085 -0.20247015 -0.21263178 0.45119694 -0.102422535
0.04168545 0.08731513 0.63013965 -0.14814694 0.68169135 -0.29759827 -0.41212976 0.7354419
0.79640096 -0.104518645 -0.37945735 -0.25332105 -0.030910268 0.043488484 0.22538903 0.002326079
-0.66085327 -0.49397683 0.5803793 0.52107096 0.039173704 -0.7028604 0.2861792 0.60846865
-0.06333578 0.9968209 -0.17470388 -0.81073517
00000000: 9602 8d3e a3eb f43d 526e 2bbf bb17 0b3f
00000010: 5654 4fbe 25bc 59be 4903 e73e e8c2 d1bd
00000020: 5dbe 2a3d 46d2 b23d d550 213f d5b3 17be
00000030: 5383 2e3f cd5e 98be ac02 d3be ec45 3c3f
00000040: efe0 4b3f df0d d6bd 3c48 c2be 4cb3 81be
00000050: 8837 fdbc fb20 323d 62cc 663e 2171 183b
00000060: ae2d 29bf 88ea fcbe bd93 143f e864 053f
00000070: 9b74 203d a9ee 33bf 1586 923e 9ac4 1b3f
00000080: 30b6 81bd a82f 7f3f 93e5 32be 578c 4fbf

lstm.bias_ih_l1 f4 [12]
0.12850717 0.738984 0.39530808 0.47357795 0.4937004 0.28144258 0.24428141 0.7015389
-0.28911307 0.7412064 0.2550189 0.02870503
00000000: 6297 033e 0e2e 3d3f d265 ca3e cf78 f23e
00000010: 4dc6 fc3e 3e19 903e e824 7a3e 0e98 333f
00000020: a106 94be b4bf 3d3f d691 823e d026 eb3c

lstm.bias_hh_l1 f4 [12]
-0.23721664 0.15265319 0.19927232 0.02051109 -0.04602296 -0.32822242 0.36742792 0.44910038
-0.13316396 0.23602206 -0.11882648 0.32705024
00000000: ebe8 72be 1e51 1c3e 0b0e 4c3e e006 a83c
00000010: 9282 3cbd c50c a8be 831f bc3e 7cf0 e53e
00000020: 225c 08be c4af 713e 4c5b f3bd 2173 a73e

fc.weight f4 [1, 3]
-0.39580384 0.030570917 -0.56107163
00000000: cda6 cabe dc6f fa3c 64a2 0fbf
