policy_reinforce_gcn_lstm/save/model_trial_219_h2_lr0.00485_g0.902.pth (torch, 4472 bytes, 13 tensors)

conv1.bias f4 [2]
0	0x3d65e8cf	0.056130227
1	0xbcade6d7	-0.021228237

conv1.lin.weight f4 [2, 4]
0	0xbf3ea7ea	-0.74474967
1	0xbf13890d	-0.57631
2	0x3ec4db3e	0.3844852
3	0xbea740a5	-0.32666507
4	0x3f90a752	1.1301062
5	0x3f94d63b	1.1627878
6	0xbf56dbee	-0.83929336
7	0x3fc3a036	1.5283267

conv2.bias f4 [2]
0	0x00000000	0.0
1	0x00000000	0.0

conv2.lin.weight f4 [2, 2]
0	0x3f0ed8c5	0.55799514
1	0x3f9c09c2	1.2190478
2	0x3f1a51f5	0.60281307
3	0x3e4ddf74	0.20104772

lstm.weight_ih_l0 f4 [8, 2]
0	0xbdb4cb5e	-0.08827852
1	0xbe792686	-0.24331102
2	0x3eed2c5b	0.46322903
3	0x3f045ecc	0.5170715
4	0xbf2f7b1d	-0.6854723
5	0x3f2dc4d2	0.6787845
6	0x3e6dd366	0.23225173
7	0xbe2fadb7	-0.1715611
8	0xbed8361f	-0.4222879
9	0x3f2dd1d6	0.6789831
10	0xbeb1fb19	-0.34761885
11	0x3ed33d21	0.41257575
12	0x3f011caf	0.5043439
13	0xbeecdef5	-0.46263853
14	0xbe6aa49f	-0.2291436
15	0x3ec8c994	0.39216292

lstm.weight_hh_l0 f4 [8, 2]
0	0x3d9c75b6	0.07639639
1	0xbea7bf9c	-0.32763374
2	0x3f0aae75	0.5417245
3	0x3e8d15de	0.27555746
4	0x3ed8dea2	0.42357355
5	0xbf32803d	-0.69726926
6	0xbf145906	-0.5794834
7	0xbe59095d	-0.21194978
8	0xbf177fe6	-0.5917953
9	0x3e209659	0.15682353
10	0x3f3194ba	0.69367564
11	0x3df73482	0.12070562
12	0xbf23fb41	-0.6405526
13	0xbef4e0b3	-0.47827682
14	0x3e0231b8	0.12714279
15	0xbd8cd3ff	-0.068763725

lstm.bias_ih_l0 f4 [8]
0	0x3ec3899b	0.38190922
1	0x3c7daa49	0.015482494
2	0x3e390fde	0.18072459
3	0x3e7264b6	0.2367123
4	0xbed1b148	-0.40955567
5	0x3eca9560	0.3956709
6	0x3ef0b45e	0.4701261
7	0xbea30d50	-0.31846094

lstm.bias_hh_l0 f4 [8]
0	0x3dc1f5ae	0.09470688
1	0x3f118f41	0.56859213
2	0xbf29e2a3	-0.66361445
3	0xbe62a3bb	-0.2213277
4	0x3dfb0424	0.12256649
5	0x3da574a0	0.08078885
6	0xbe29f84d	-0.16598625
7	0x3eb46d9f	0.35239884

lstm.weight_ih_l1 f4 [8, 2]
0	0xbf04ada6	-0.51827466
1	0xbd93af58	-0.072111785
2	0x3ec14bb7	0.37753078
3	0xbbd7fc28	-0.0065913387
4	0x3f1bd11d	0.60865957
5	0x3f769a52	0.96329224
6	0x3ebdfd71	0.37107423
7	0x3ec8cdc6	0.39219493
8	0xbeb23e19	-0.34813002
9	0x3f88af89	1.0678569
10	0x3e9e287f	0.3089027
11	0xbf655b7f	-0.89592737
12	0xbefec8fe	-0.4976272
13	0x3f421fa3	0.75829524
14	0xbe6ede44	-0.23326975
15	0x3e1c4ab2	0.15262869

lstm.weight_hh_l1 f4 [8, 2]
0	0xbd1abb26	-0.037776135
1	0xbe920ac0	-0.28523827
2	0x3f33588c	0.70056987
3	0xbf4f5772	-0.80992806
4	0x3f06031a	0.5234848
5	0xbd4b6f71	-0.049666826
6	0x3e866cc5	0.2625486
7	0x3e315208	0.17316449
8	0x3f4a1806	0.78942907
9	0xbee786d3	-0.4522005
10	0x3d9cac22	0.07650019
11	0x3f1a9a23	0.60391444
12	0x3f1c83b8	0.61138487
13	0xbf062539	-0.5240055
14	0x3f08570e	0.53257835
15	0xbe08755b	-0.13326018

lstm.bias_ih_l1 f4 [8]
0	0xbdfd8d01	-0.1238041
1	0x3e4e8e7d	0.20171542
2	0xbe2b825c	-0.16748947
3	0x3f25de85	0.6479266
4	0x3dbff7f9	0.09373469
5	0x3eac641a	0.3367012
6	0xbdc0f066	-0.09420852
7	0x3e06e142	0.13171867

lstm.bias_hh_l1 f4 [8]
0	0x3f13f303	0.5779268
1	0x3f12f496	0.5740446
2	0x3f689981	0.9085923
3	0x3f7b4637	0.98154014
4	0x3e944ae9	0.28963402
5	0xbf88ab63	-1.0677303
6	0x3e96828d	0.29396477
7	0x3e29283b	0.16519253

fc.weight f4 [1, 2]
0	0xbc02b5b5	-0.007977893
1	0x3ede75f3	0.43449363
