policy_reinforce_gcn_lstm/save/model_trial_22_h2_lr0.00070_g0.976.pth (torch, 4461 bytes, 13 tensors)

conv1.bias f4 [2]
-0.05211945 0.050549224
00000000: 347b 55bd b40c 4f3d

conv1.lin.weight f4 [2, 4]
-0.6912124 -0.7166808 -0.6556771 0.23532104 -0.83248585 -0.4862373 -0.6297933 -0.41405416
00000000: 4cf3 30bf 6578 37bf 74da 27bf 00f8 703e
00000010: cb1d 55bf 18f4 f8be 223a 21bf e8fe d3be

conv2.bias f4 [2]
0.0 0.0
00000000: 0000 0000 0000 0000

conv2.lin.weight f4 [2, 2]
1.0379717 0.37807885 0.3090899 0.12530766
00000000: 42dc 843f 8d93 c13e 0841 9e3e a750 003e

lstm.weight_ih_l0 f4 [8, 2]
-0.045553185 -0.28777736 -0.100548804 0.49834558 -0.065267004 -0.25119066 -0.5910756 0.33917186
0.26503313 0.03608689 0.45444682 -0.5734479 -0.62799 0.545776 0.21947438 0.21955648
00000000: fa95 3abd 8e57 93be 88ec cdbd 2727 ff3e
00000010: b5aa 85bd 109c 80be bb50 17bf efa7 ad3e
00000020: 6cb2 873e d9cf 133d 41ad e83e 7bcd 12bf
00000030: f4c3 20bf fab7 0b3f e4bd 603e 6ad3 603e

lstm.weight_hh_l0 f4 [8, 2]
-0.6994735 -0.39198947 0.44259313 0.22444764 0.10694886 -0.29573786 -0.05641693 -0.11345721
0.10517721 0.07426292 -0.54035074 -0.4689834 0.42576817 -0.41678733 0.48538876 -0.16123378
00000000: b210 33bf d8b2 c8be 919b e23e 9ad5 653e
00000010: 0108 db3d f46a 97be 7015 67bd 415c e8bd
00000020: 2667 d73d 2817 983d 6d54 0abf 981e f0be
00000030: 49fe d93e 2665 d5be e084 f83e 781a 25be

lstm.bias_ih_l0 f4 [8]
0.68525326 0.23101588 -0.5881133 -0.6313125 0.2355595 -0.5690481 0.03902454 0.026189221
00000000: c26c 2f3f 6d8f 6c3e 988e 16bf b29d 21bf
00000010: 8236 713e 23ad 11bf 32d8 1f3d c78a d63c

lstm.bias_hh_l0 f4 [8]
-0.06233984 0.19940169 0.7046469 -0.15051508 0.013583676 0.5701948 -0.27481395 -0.113087974
00000000: 0f58 7fbd f52f 4c3e bd63 343f a020 1abe
00000010: 118e 5e3c 49f8 113f 6ab4 8cbe ab9a e7bd

lstm.weight_ih_l1 f4 [8, 2]
-0.6967765 0.69121486 0.32846582 0.3736391 -0.47436714 -0.12750162 0.39328778 -0.59447396
0.0896917 -0.6345557 0.4482829 -0.56484896 -0.36731288 0.40778774 -0.5824161 -0.24608389
00000000: f25f 32bf 75f3 303f ac2c a83e a04d bf3e
00000010: 40e0 f2be c98f 02be 045d c93e 722f 18bf
00000020: 48b0 b73d 3e72 22bf 5685 e53e f199 10bf
00000030: 6f10 bcbe 8ec9 d03e 3919 15bf 6afd 7bbe

lstm.weight_hh_l1 f4 [8, 2]
0.071543604 0.47031 0.16074838 -0.6323793 0.021581529 0.42221302 -0.3343501 0.39930123
-0.4631386 -0.018385513 -0.3453527 -0.29275364 0.069468535 0.04459749 0.14416017 0.55803275
00000000: 7485 923d 79cc f03e 399b 243e 9ce3 21bf
00000010: bfcb b03c 4e2c d83e f02f abbe 3671 cc3e
00000020: 8120 edbe 379d 96bc 12d2 b0be cee3 95be
00000030: 8545 8e3d dcab 363d b99e 133e 3cdb 0e3f

lstm.bias_ih_l1 f4 [8]
-0.43081543 -0.05131078 0.2242863 0.092803575 -0.26827815 0.26207927 -0.26219448 -0.49006337
00000000: d793 dcbe 412b 52bd 4fab 653e cd0f be3d
00000010: c15b 89be 412f 863e 5b3e 86be 96e9 fabe

lstm.bias_hh_l1 f4 [8]
-0.4573112 -0.34500617 -0.10786979 0.36589363 -0.13428843 -0.5693921 0.20092887 -0.1628912
00000000: b224 eabe a6a4 b0be d6ea dcbd 6956 bb3e
00000010: e882 09be aec3 11bf 4cc0 4d3e f3cc 26be

fc.weight f4 [1, 2]
0.19646214 -0.47633946
00000000: 5f2d 493e c4e2 f3be
