policy_reinforce_gcn_lstm/save/model_trial_18_h4_lr0.00188_g0.978.pth (torch, 6178 bytes, 11 tensors)

conv1.bias f4 [4]
0	0x3d14a311	0.036288325
1	0x3d5d59c4	0.054040685
2	0xbce06ecb	-0.02739658
3	0x3d06f6ce	0.032950215

conv1.lin.weight f4 [4, 3]
0	0xbdb5fd64	-0.08886221
1	0x3e2d6fd2	0.16937187
2	0x3f431351	0.7620135
3	0xbf08816b	-0.53322476
4	0xbf85f63e	-1.0465772
5	0xbf828adf	-1.019863
6	0x3f5e6798	0.8687682
7	0xbe3b01e9	-0.18262447
8	0xbf2dd868	-0.67908335
9	0xbf17fadb	-0.5936715
10	0xbe326f44	-0.17425257
11	0xbd851f3e	-0.065000996

lstm.weight_ih_l0 f4 [16, 4]
0	0x3eeb110e	0.4591145
1	0xbb4966ff	-0.0030731556
2	0xbe8f2963	-0.27961263
3	0x3e5b15f5	0.21395095
4	0x3e9ec79c	0.31011665
5	0xbe19c562	-0.15016702
6	0xbec9dc82	-0.39426047
7	0xbdc6f731	-0.09715117
8	0xbe0da774	-0.1383341
9	0x3d82320f	0.06357204
10	0xbeba75d0	-0.3641801
11	0xbdfb553f	-0.12272119
12	0xbe7bb54d	-0.2458088
13	0xbea3efea	-0.32018977
14	0x3e45b4c9	0.19307245
15	0xbea4a962	-0.3216048
16	0x3eee553c	0.46549404
17	0x3e893d99	0.26804808
18	0x3ecf4ffb	0.40490708
19	0xbeda0062	-0.42578417
20	0x3debb762	0.11509587
21	0x3d9391cc	0.07205543
22	0xbe46737e	-0.19379994
23	0x3e304c45	0.17216595
24	0xbe25c7b1	-0.16189457
25	0x3e6caea6	0.23113498
26	0x3e5b9f7a	0.21447554
27	0x3e332fde	0.17498729
28	0x3e6598dc	0.22421592
29	0xbeec3d5d	-0.46140566
30	0xbe8a198e	-0.26972622
31	0xbe97e6b2	-0.29668194
32	0xbc8c4b65	-0.017125795
33	0x3e042f52	0.12908676
34	0xbef2539c	-0.47329414
35	0xbe3be220	-0.18347979
36	0x3e627ae8	0.22117198
37	0x3ee7c6b6	0.45268792
38	0xbea292fa	-0.3175276
39	0x3e8d6da6	0.27622718
40	0xbe82e196	-0.25562733
41	0x3e250583	0.16115384
42	0xbd8d2c21	-0.068931825
43	0xbf05e3ed	-0.5230091
44	0xbec4ce3c	-0.38438594
45	0x3ed18690	0.40922976
46	0xbebb9fac	-0.36645257
47	0x3ee53c60	0.44772625
48	0xbe9ec98f	-0.31013152
49	0x3d3428a1	0.04398406
50	0x3ee03e7d	0.43797675
51	0xbeefeb5e	-0.46859258
52	0x3ef0d2a9	0.4703572
53	0x3ce454af	0.027872412
54	0xbef7628e	-0.4831738
55	0x3eabbfa7	0.33544657
56	0x3e2b136e	0.1670663
57	0x3e8f04b5	0.2793328
58	0x3e4122e0	0.1886096
59	0x3ec28d4e	0.37998432
60	0x3c3e1517	0.011601708
61	0xbd95c471	-0.07312859
62	0xbe07da48	-0.13266861
63	0xbeb75fb3	-0.358152

lstm.weight_hh_l0 f4 [16, 4]
0	0xbeaded2d	-0.33970013
1	0x3d926bc5	0.07149462
2	0xbe980405	-0.29690567
3	0xbe44517f	-0.19171713
4	0x3c81db5e	0.015851673
5	0x3d320cf6	0.04346939
6	0xbe9c4767	-0.30523226
7	0xbe3ded60	-0.18547583
8	0xbe9aa967	-0.3020737
9	0x3e45e0d8	0.19324052
10	0xbe334e31	-0.17510296
11	0x3e61ea2e	0.22061989
12	0x3e968018	0.29394603
13	0x3de906c6	0.11378245
14	0xbe0e496c	-0.13895196
15	0xbe924c05	-0.28573623
16	0x3eb6afc0	0.35680962
17	0x3eedd454	0.46451056
18	0xbedaf924	-0.42768204
19	0x3d9d95a5	0.07694558
20	0xbedfc7aa	-0.4370702
21	0x3ec911a0	0.3927126
22	0xbed998d8	-0.42499423
23	0xbee919e0	-0.45527554
24	0x3ecd30d7	0.40076324
25	0x3ef0fecb	0.47069392
26	0xbe2e7288	-0.17035878
27	0xbedfdc2b	-0.43722662
28	0xbef5fbfa	-0.48043805
29	0x3e88802e	0.26660293
30	0xbea29560	-0.3175459
31	0x3e699348	0.2281009
32	0x3ec8560f	0.39128157
33	0x3eba5af9	0.36397532
34	0x3eae9aed	0.34102574
35	0xbeefb28a	-0.46815902
36	0x3bd8a680	0.006611645
37	0xbeb3c428	-0.35110593
38	0xbe8857ee	-0.26629585
39	0xbe9d4398	-0.30715632
40	0x3e7c1790	0.24618363
41	0x3ec02032	0.37524563
42	0xbdbf7e78	-0.09350294
43	0x3c03d071	0.008045302
44	0x3eabd9da	0.33564645
45	0x3ef466ae	0.47734588
46	0xbe204e60	-0.15654898
47	0x3eb8e542	0.3611241
48	0x3ed9302e	0.4241957
49	0xbead840a	-0.338898
50	0x3e0ca60f	0.13735221
51	0xbdd3f155	-0.10348765
52	0xbe7d01f3	-0.24707775
53	0xbc094c86	-0.008380061
54	0x3ee46c34	0.44613802
55	0xbdb4f88d	-0.0883647
56	0xbe9a7e38	-0.30174422
57	0x3ebcd328	0.3687985
58	0xbe3b5aea	-0.182964
59	0xbe3219fe	-0.17392728
60	0x3ec312dc	0.38100326
61	0xbdfa24ca	-0.12214048
62	0xbdf407d0	-0.119155526
63	0x3e988c14	0.2979437

lstm.bias_ih_l0 f4 [16]
0	0x3f016af8	0.50553846
1	0xbecd6a85	-0.4012033
2	0x3ea28200	0.31739807
3	0x3ee58b02	0.44832617
4	0xbe8a1b92	-0.2697416
5	0xbea338da	-0.31879312
6	0xbdd91ffa	-0.10601802
7	0xbe0334a3	-0.12813048
8	0xbe90f963	-0.28315267
9	0x3dd1e2e8	0.10248357
10	0x3ed28218	0.4111488
11	0x3ee4cd40	0.44687843
12	0xbe09ba1d	-0.13449903
13	0x3e7d8d62	0.24760965
14	0x3ef23beb	0.4731134
15	0x3cead120	0.028664172

lstm.bias_hh_l0 f4 [16]
0	0x3d30aafc	0.043131813
1	0x3e1ae549	0.15126528
2	0x3eed0b04	0.46297467
3	0x3bb1d564	0.0054270495
4	0x3e874cd4	0.26425803
5	0x3ef0f46a	0.47061473
6	0x3cfbfaca	0.030759234
7	0x3ec9fc57	0.39450333
8	0x3e171904	0.14755636
9	0x3e8f4d74	0.2798878
10	0xbea16ca0	-0.31528187
11	0xbcaa94c0	-0.020822883
12	0x3df90d61	0.12160755
13	0xbec2e9bb	-0.38068947
14	0x3d95446a	0.072884396
15	0xbecad3f2	-0.39614826

lstm.weight_ih_l1 f4 [16, 4]
0	0x3ebefc17	0.37301704
1	0x3ef2cacd	0.4742035
2	0x3ed6dc0f	0.41964766
3	0x3ead9b48	0.33907533
4	0x3ebbf04a	0.36706764
5	0x3ea9e715	0.33184114
6	0x3ed9b43f	0.4252033
7	0xbf0ad7e8	-0.54235697
8	0x3de84f22	0.113432184
9	0xbebdb276	-0.37050217
10	0xbd890344	-0.06690076
11	0x3e9ce583	0.30643854
12	0xbf167cd1	-0.58784205
13	0x3b3b547c	0.0028584292
14	0xbecbc4fe	-0.3979873
15	0xbdb92344	-0.090399295
16	0x3efe228a	0.49635726
17	0xbef3ebf4	-0.47640955
18	0x3e98fe68	0.29881597
19	0x3e9ce894	0.30646193
20	0xbee94aff	-0.4556503
21	0xbd70d17f	-0.05879354
22	0xbe6a84d6	-0.22902235
23	0xbe6f373f	-0.23360918
24	0xbeb04644	-0.34428608
25	0x3eca7d07	0.39548513
26	0xbefe7da5	-0.49705234
27	0xbebb195d	-0.36542788
28	0x3e9a14ef	0.30094096
29	0x3e578fa4	0.21050888
30	0xbefa2353	-0.48855075
31	0x3e2d670b	0.16933839
32	0x3ee3ebb5	0.44515768
33	0xbe377792	-0.17916706
34	0xbe1c7b08	-0.15281308
35	0xbebf9015	-0.37414613
36	0xbf020425	-0.50787574
37	0x3e6fc6b2	0.2341564
38	0x3d284596	0.041081987
39	0xbe330bc1	-0.17484953
40	0x3db3b402	0.08774568
41	0x3ef515e6	0.4786827
42	0xbebc7538	-0.3680818
43	0x3eea71f4	0.45790064
44	0xbeb38f2f	-0.35070178
45	0xbed95633	-0.42448577
46	0x3eda1fb7	0.42602322
47	0xbd337aa5	-0.043818135
48	0x3ddd9f21	0.10821367
49	0x3e3d2e17	0.18474613
50	0xbeb7c57b	-0.35892853
51	0xbedc7740	-0.4305973
52	0xbe82e315	-0.25563875
53	0x3eeba24f	0.4602227
54	0x3d9b9e16	0.07598512
55	0xbe8e8594	-0.27836287
56	0xbe4b88b5	-0.19876368
57	0x3cbccc81	0.023046734
58	0xbe3d197f	-0.18466757
59	0x3ea66f10	0.3250661
60	0xbe5a9eb5	-0.21349604
61	0xbe4a7114	-0.19769698
62	0xbe04fb04	-0.1298638
63	0xbf30764b	-0.689305

lstm.weight_hh_l1 f4 [16, 4]
0	0x3e721ee7	0.23644601
1	0xbeedd419	-0.4645088
2	0x3e6a1e05	0.22863014
3	0xbdbbbbc9	-0.091666766
4	0x3ebac5de	0.36479086
5	0x3c24cf97	0.010059259
6	0xbefb0af4	-0.49031794
7	0x3f038dbd	0.5138815
8	0x3e62b314	0.22138625
9	0x3c148d71	0.009066925
10	0x3dc68b44	0.096945316
11	0x3f22420c	0.6338203
12	0x3d255c3a	0.040371157
13	0x3c424444	0.011857096
14	0xbe8bc7ab	-0.27300772
15	0xbe5fffd8	-0.2187494
16	0x3edaaa48	0.4270804
17	0xbe8843e2	-0.2661429
18	0xbdba58fe	-0.09099005
19	0x3d27269d	0.04080831
20	0xbddde7b7	-0.10835212
21	0x3f1d3f15	0.6142438
22	0xbea3fb3f	-0.32027623
23	0x3e8581fe	0.2607574
24	0x3eee3886	0.465275
25	0x3f155d13	0.58345145
26	0xbef13f01	-0.4711838
27	0x3eb02438	0.34402633
28	0xbe54627e	-0.20740697
29	0x3dcf593f	0.10124444
30	0xbead9ad7	-0.33907196
31	0x3e48341f	0.19551133
32	0x3c630760	0.013856739
33	0x3e56b605	0.20967872
34	0x3d065ca4	0.032803193
35	0x3bffff81	0.007812441
36	0xbe8e55eb	-0.27799925
37	0x3cb4256d	0.021990502
38	0xbe889df5	-0.26683012
39	0x3e8dcad6	0.27693814
40	0xbebe7771	-0.37200502
41	0x3c235a21	0.009970219
42	0xbe389067	-0.18023835
43	0xbe0e0bbb	-0.13871662
44	0x3efcadf7	0.49351475
45	0xbe10e5b4	-0.14150125
46	0xbd8418d9	-0.06450052
47	0x3e97fa48	0.29683137
48	0xbec126fe	-0.3772506
49	0xbe7f5461	-0.24934532
50	0x3ed262b2	0.41090924
51	0xbee0638f	-0.43825957
52	0x3e9ba18b	0.30396685
53	0xbe497ac5	-0.19675739
54	0xbef07dd6	-0.46971005
55	0x3f1674c6	0.5877193
56	0x3ef474f1	0.4774547
57	0xbe2c585b	-0.1683058
58	0xbe0c47ae	-0.13699219
59	0x3e972785	0.29522339
60	0x3d589e5c	0.0528854
61	0x3f22502b	0.63403577
62	0x3d136d87	0.035993125
63	0x3e0873fd	0.13325496

lstm.bias_ih_l1 f4 [16]
0	0xbe9c0840	-0.30475044
1	0x3f1ffeb2	0.6249801
2	0x3f0637a9	0.5242868
3	0x3db72001	0.08941651
4	0xbe9bc49e	-0.30423445
5	0x3ec67508	0.38761163
6	0x3e874c65	0.26425472
7	0xbe75e213	-0.24012022
8	0x3ebdd8fe	0.37079614
9	0x3f21613d	0.63039
10	0xbf1c01df	-0.60940355
11	0x3ea02ff8	0.31286597
12	0xbe53019f	-0.20606087
13	0x3ccd5d0e	0.025068786
14	0x3f0e1e0c	0.555146
15	0x3f175756	0.5911764

lstm.bias_hh_l1 f4 [16]
0	0xbe948b22	-0.290124
1	0x3f254d84	0.64571404
2	0x3ed2d309	0.41176632
3	0x3de1b9c6	0.110217616
4	0x3d0faf87	0.035079505
5	0x3e8f3170	0.27967405
6	0x3e94a894	0.29034865
7	0x3ed819ab	0.42207083
8	0x3ec11156	0.3770854
9	0xbe5e5df1	-0.21715523
10	0xbf19391d	-0.5985277
11	0x3edfabc6	0.4368574
12	0xbe8cdca8	-0.27512097
13	0x3edfa82d	0.43682995
14	0x3e97ce41	0.29649547
15	0x3e9a4732	0.30132443

fc.weight f4 [1, 4]
0	0x3ec341f8	0.38136268
1	0x3df4a328	0.11945182
2	0xbeffc4da	-0.49954873
3	0x3ef4a498	0.47781825
