policy_reinforce_gcn_lstm/save/model_trial_122_h3_lr0.00036_g0.988.pth (torch, 4920 bytes, 13 tensors)

conv1.bias f4 [3]
00000000: f891 b13c 2f87 aa3c ca6f aa3c
0.021676049 0.020816414 0.020805258

conv1.lin.weight f4 [3, 4]
00000000: ae19 1f3f d510 563f 6dc0 253f 7488 62bd
00000010: 98bd 373f a0f3 4dbf 6dac 303f 53f0 4cbf
00000020: 8a08 77bf ab76 33bf 34c7 f53e 18a0 3ebf
0.6214856 0.83619434 0.64746743 -0.055305913 0.7177367 -0.8044987 0.690131 -0.80054206
-0.96497405 -0.7010295 0.48003542 -0.74463034

conv2.bias f4 [3]
00000000: 0000 0000 0000 0000 0000 0000
0.0 0.0 0.0

conv2.lin.weight f4 [3, 3]
00000000: 3678 483f b642 43bf fe91 5cbf 9092 abbe
00000010: 8ead 4dbf 609e e7bd c4de 0f3f 72c4 2cbf
00000020: ec75 6ebf
0.7830843 -0.7627367 -0.86160266 -0.33510256 -0.8034295 -0.113095045 0.5619929 -0.6748725
-0.93148685

lstm.weight_ih_l0 f4 [12, 3]
00000000: e7e8 d1be 8cc1 5abe 1626 0dbf 76aa c03e
00000010: f2dc 54be a314 0b3f f7ca df3e 486a 08bf
00000020: 59f4 bd3d f7ce 80bd 3d3e 41be cafb e6be
00000030: 4b29 fc3e 870f 0c3f 5031 f03e bcf4 693d
00000040: a90f 94bd 12de 983e bf89 383e be7d 37ba
00000050: 95a7 b83d 43db c5be 5735 a13e 1b5f 9f3d
00000060: 75c3 d23e fe76 69be ad75 eabe 4fce f43d
00000070: e596 873e a0e4 46be ee54 5c3c 0067 85be
00000080: 2734 323e 1f8a b0be da21 98be 4c40 3cbe
-0.40998003 -0.21362895 -0.5513624 0.3763005 -0.20787409 0.54328364 0.43709537 -0.5328717
0.09275121 -0.062894754 -0.18871398 -0.45113975 0.49250254 0.5471119 0.46912622 0.057118163
-0.072295494 0.29856926 0.18021296 -0.0006999633 0.09016339 -0.38643846 0.31486008 0.07781812
0.41164747 -0.22799298 -0.45792904 0.11953413 0.2648231 -0.19423151 0.013447983 -0.26055145
0.17402707 -0.34480378 -0.29713327 -0.18383902

lstm.weight_hh_l0 f4 [12, 3]
00000000: 5fcf 123f 9447 ab3e 4597 0abf 4ce5 a43e
00000010: 1af1 023f ee9d da3e 5703 3e3e b10f 68be
00000020: 773b 513e c274 523e c5b8 f1be 7848 733e
00000030: 87c2 abbc 1962 96be b592 e03d c12a 85be
00000040: c3c8 b33d b831 003f 10ce a1be 53d0 2e3c
00000050: 801e 493e 67c7 c93e 297d c0be 648b af3d
00000060: 457b 073f f636 abbe a21c 99be 1885 f8bd
00000070: b8ed cabe 1ea0 c1be 21fc 863e 0370 0f3f
00000080: 5f83 873e 1868 0ebf 3cdb 5f3e 304e d53e
0.57347673 0.33453047 -0.5413707 0.3220619 0.5114914 0.42698616 0.18555962 -0.22662236
0.2043284 0.20552352 -0.4721128 0.23758113 -0.020966781 -0.29371718 0.10965482 -0.2600918
0.08778527 0.50075865 -0.31602526 0.010669786 0.19640541 0.39409944 -0.3759549 0.085715085
0.5292247 -0.3344037 -0.29904658 -0.121347606 -0.3963449 -0.37817472 0.26364234 0.5603029
0.26467416 -0.55627584 0.21860975 0.41661215

lstm.bias_ih_l0 f4 [12]
00000000: 4fee 0a3f bebb f83e ca04 cf3e 9372 fb3e
00000010: 0620 093f c5ed 45bd 1069 0a3e 2e15 c6be
00000020: d932 523e 6d3c 08bf 95e8 5dbc 3b39 2b3e
0.5426988 0.48580736 0.4043334 0.4911085 0.5356449 -0.048322458 0.1351664 -0.38688034
0.2052721 -0.532172 -0.013544221 0.1672105

lstm.bias_hh_l0 f4 [12]
00000000: e43e 163f 772b efbe 2042 76be a869 c2be
00000010: 9fd3 c23e 503f e53e 083d a0be 4683 173e
00000020: 1b38 aa3e 05d8 a7be b9c1 0dbe 4e6f 133e
0.58689713 -0.4671285 -0.24048662 -0.37971234 0.3805208 0.44774866 -0.31296563 0.1479617
0.3324593 -0.32781997 -0.1384343 0.14397928

lstm.weight_ih_l1 f4 [12, 3]
00000000: 3444 f5be 885e c3be c963 a3be b766 a7be
00000010: d45d 573e 0896 de3e 0f0a 043f 156f e5be
00000020: 9585 efbe f6a0 033d 2786 45be b28a eebe
00000030: d4eb 113f ad56 0cbf 58d2 e0be 59a7 223e
00000040: 936b 1a3d 13ce a4be a77c f8be 0958 f6bd
00000050: 08fa 09be e5ed f0be ac36 933e 2524 693e
00000060: 56a4 553e eba8 0cbe b556 783e 0c62 073f
00000070: 45f1 39be 62a2 4ebe fc33 ba3e 13a1 febd
00000080: 93d7 13bf ede5 07be f5db e9bd 57f1 04bf
-0.47903597 -0.3815806 -0.31912068 -0.32695553 0.21031886 0.4347384 0.5157785 -0.4481131
-0.46781603 0.032135926 -0.19289456 -0.4659019 0.5700047 -0.54819757 -0.4391048 0.1588415
0.037700247 -0.32188472 -0.48532602 -0.1202851 -0.13474286 -0.470565 0.2875265 0.22767694
0.2086347 -0.13736312 0.24251826 0.5288398 -0.18158443 -0.20179132 0.36367786 -0.12433066
-0.57750815 -0.13271303 -0.114189066 -0.51930755

lstm.weight_hh_l1 f4 [12, 3]
00000000: 787f 1bbe dd49 c83d 9422 9dbe 54ae 1b3d
00000010: 149f b2bd 7f73 e6bd 9db9 c3be 9e84 b03e
00000020: d4aa 973e 655b 8ebd a595 bfbe 1670 a13e
00000030: cb22 443e b99f 5e3e 5f45 d9bd f2cd 21bf
00000040: fc55 033f cd69 63be 4675 c5be 7122 72be
00000050: 25d3 0cbf bbc8 cf3e 83e3 e63e 919c 2fbe
00000060: e316 13bf 8bc4 c03e 56bd 133e fb51 fb3e
00000070: 1e92 693e 1d82 1c3f 798c bb3e ba10 10be
00000080: 1608 823d 9341 afbe 9413 593e eded 963e
-0.15185344 0.09779713 -0.30690444 0.03800805 -0.08721748 -0.11252498 -0.3822755 0.3447618
0.2962252 -0.06951026 -0.37418857 0.31530827 0.19153897 0.21740617 -0.106089346 -0.6320487
0.51303077 -0.22208329 -0.38566035 -0.23645951 -0.5500968 0.40582833 0.45095453 -0.17149569
-0.574568 0.3764995 0.14427695 0.49085984 0.22809646 0.6113604 0.3663061 -0.1406888
0.063491985 -0.34229717 0.21198875 0.29478398

lstm.bias_ih_l1 f4 [12]
00000000: aa4f b9be e06d dcbe 2c18 203e 4d65 813e
00000010: 1fe5 9abe 9da1 4ebe 6ddb bbbe 7092 edbe
00000020: 8413 063f 07c7 803d 8289 d23d 64f2 efbc
-0.3619359 -0.43052578 0.15634221 0.252726 -0.3025293 -0.20178838 -0.36690846 -0.46400785
0.5237353 0.062879615 0.10280134 -0.029290386

lstm.bias_hh_l1 f4 [12]
00000000: 54b8 923e 9c2a f0be 70cb bc3c 9217 7ebe
00000010: a306 f83d 6396 173f aa37 343e 42c1 093f
00000020: e9f3 ed3e 75b3 933e 4114 5f3e e3d1 023f
0.28656256 -0.46907508 0.023046225 -0.24813679 0.12110641 0.59213847 0.17599359 0.53810513
0.4647515 0.28847852 0.2178507 0.5110151

fc.weight f4 [1, 3]
00000000: c7d4 87be fcbc 5a3e d818 323e
-0.26529524 0.21361154 0.1739229
