policy_reinforce_gcn_lstm/save/model_trial_136_h1_lr0.00636_g0.912.pth (torch, 4216 bytes, 9 tensors)

conv1.lin.weight f4 [1, 4]
0	0x3f5a973f	0.85387033
1	0x3fbb4c50	1.4632664
2	0xbe5b653a	-0.21425334
3	0x3e1deccc	0.15422362

lstm.weight_ih_l0 f4 [4, 1]
0	0x3d960b36	0.07326357
1	0xbe932dab	-0.2874578
2	0x3f4c2520	0.7974415
3	0x3f3c7082	0.73609173

lstm.weight_hh_l0 f4 [4, 1]
0	0xbed59b9d	-0.41720286
1	0x3f535e59	0.8256584
2	0xbe44a9a8	-0.19205344
3	0xbee08874	-0.43854105

lstm.bias_ih_l0 f4 [4]
0	0x3dd16632	0.1022457
1	0x3f7c9989	0.98671776
2	0xbf0ad5dc	-0.54232574
3	0xbf0b3de8	-0.54391336

lstm.bias_hh_l0 f4 [4]
0	0xbf3314d1	-0.6995364
1	0x3f515faf	0.81786627
2	0x3f633610	0.8875437
3	0x3f41dc5a	0.75726855

lstm.weight_ih_l1 f4 [4, 1]
0	0xbeed313a	-0.4632662
1	0x3f781e54	0.9692128
2	0xbe52090e	-0.20511267
3	0x3f6994e9	0.91242844

lstm.weight_hh_l1 f4 [4, 1]
0	0xbee6ef43	-0.45104417
1	0x3f9ad160	1.2095146
2	0x3f2fd185	0.68679076
3	0x3f039dcb	0.5141265

lstm.bias_ih_l1 f4 [4]
0	0x3f6cfe51	0.92575556
1	0x3eab7ab3	0.3349205
2	0x3f765a97	0.9623198
3	0x3f47c1e5	0.78030235

lstm.bias_hh_l1 f4 [4]
0	0x3f87aad4	1.0599008
1	0x3f335960	0.7005825
2	0x3e5c6615	0.21523316
3	0x3f3c71bf	0.7361106
