policy_reinforce_gcn_lstm/save/model_trial_265_h3_lr0.00079_g0.963.pth (torch, 4920 bytes, 13 tensors)

conv1.bias f4 [3]
00000000: f3cf 563d 45a5 3cbd 288c 6bbd
0.05244441 -0.04605605 -0.05750671

conv1.lin.weight f4 [3, 4]
00000000: e33b 2dbf 8eae 81be f9cf 423f 30d7 35bf
00000010: 8311 333f f515 3bbf 021f 7bbf 4455 293f
00000020: 5432 d2be 3f24 7bbe d13f 6c3e 50b5 07bf
-0.67669505 -0.25328487 0.7609859 -0.71031475 0.69948596 -0.7308038 -0.9809419 0.6614573
-0.41054022 -0.24525546 0.23071219 -0.53011036

conv2.bias f4 [3]
00000000: 0000 0000 0000 0000 0000 0000
0.0 0.0 0.0

conv2.lin.weight f4 [3, 3]
00000000: 88d7 763e d0a0 1d3e 209d 313e 28d9 d73e
00000010: 7054 15be e013 66be 1cea 7d3f 7c8c 2a3f
00000020: 00f7 fe3d
0.24105656 0.15393376 0.17345095 0.42157865 -0.14582992 -0.22468519 0.9918535 0.6662061
0.12449455

lstm.weight_ih_l0 f4 [12, 3]
00000000: 8ffc bbbe 32e3 20be 8edd 61bd bf92 0abf
00000010: dd06 e93d 8433 bc3e b593 37be 4994 3a3d
00000020: 2b5e 6b3e 4b84 3dbd 5681 dc3e d555 c6be
00000030: ed14 f43e 34e2 d8bd 89ed b7be 715e a63e
00000040: d730 d13e a495 e53d dd64 a9be 74cb d6be
00000050: d619 093e b9f8 e73e e837 0bbf 7c9f 0ebf
00000060: a3dd 823d 2ca3 e93e 9db6 933e 86b9 c2be
00000070: 377e babe 4907 823e 5bde a63e d3ce bb3e
00000080: 8541 23be 3de0 c4be d724 cf3e bfba 1b3f
-0.36716124 -0.15711668 -0.05514293 -0.54130167 0.11378262 0.36758053 -0.1792744 0.045551572
0.22985141 -0.046268743 0.43067425 -0.3873736 0.47672215 -0.1059002 -0.35923412 0.32493928
0.40857574 0.11210182 -0.33084765 -0.41952097 0.13388762 0.45306948 -0.5438218 -0.55712104
0.0638993 0.45632303 0.2885026 -0.38032168 -0.3642442 0.25396183 0.3259152 0.36681232
-0.15942962 -0.3845233 0.40457794 0.60831827

lstm.weight_hh_l0 f4 [12, 3]
00000000: d906 f6be 373d 06bf 1b7d 893e 284c 6e3e
00000010: 2901 b83e 64d6 dbbe 6db1 f3be f63b afbe
00000020: 6a5e 07bf f2c5 9fbe 0c80 98be 443f b3be
00000030: a1d5 17bd b156 693c beaa 7fbe 44b8 fabe
00000040: b63d 04bf 7a40 9dbd 9d8b dbbe 844b 073e
00000050: 2731 0c3f e4bb bebe d643 97be 1a41 c63e
00000060: 4910 5fbe d82e 413d d106 d53e 7094 16be
00000070: 240b 313e ab7f d33e 6a4e 6bbe 6dfd 73be
00000080: 9adb 8d3d a3f2 4bbe 3caf f73e 1171 3e3d
-0.480521 -0.52437156 0.2685326 0.23271239 0.35938385 -0.42937005 -0.47596303 -0.34225434
-0.5287844 -0.31205708 -0.29785192 -0.35009205 -0.037068967 0.01424186 -0.24967477 -0.4896871
-0.51656663 -0.076783136 -0.42879954 0.132124 0.547625 -0.37252724 -0.29543942 0.38721544
-0.21783556 0.047163814 0.41606763 -0.14705062 0.17289406 0.4130834 -0.22979131 -0.23827143
0.06926651 -0.19916777 0.4837588 0.046494547

lstm.bias_ih_l0 f4 [12]
00000000: b63d d9bd ea63 063f e467 e33e fda1 65be
00000010: 7101 013e 7348 13bf 0267 c33e 2321 d8be
00000020: 5c71 6b3e dfbf 023f ea96 823d ede9 813e
-0.106074736 0.52496207 0.444152 -0.22425075 0.12598206 -0.57532424 0.38164526 -0.4221278
0.22992462 0.5107402 0.06376441 0.25373784

lstm.bias_hh_l0 f4 [12]
00000000: ff4b dbbe b287 dd3e 5c0a d83c b4b1 e9be
00000010: 643d a9bd 14c2 efbe b405 e53e 6e3f 3cbe
00000020: 56ec f4be da2a 4ebe db9b d63e 9ef4 8cbe
-0.42831418 0.4326759 0.026372127 -0.4564339 -0.082636625 -0.46827757 0.44730914 -0.18383572
-0.4783656 -0.20133534 0.41915783 -0.27530378

lstm.weight_ih_l1 f4 [12, 3]
00000000: 7592 febd 0a96 d93e 2c90 d6be 499e 43be
00000010: af8c f1be f825 8b3e d0f8 0b3e 8d7a 9bbe
00000020: 4e91 403e 7c58 a53e c4a4 2cbd dc2f 9fbe
00000030: e947 32bd 0400 9abe 2df9 aabe 10b5 0fbf
00000040: 80fa 123f 15fa 893e a04f 0e3f f041 0bbe
00000050: e358 8ebd 4ba9 ebbe a92b ecbe 90ce 96be
00000060: b016 85be 5da4 debe 0e80 f73e 23c6 bb3e
00000070: 8252 42bd 5c3c c9be a68c 023f 051f 0bbf
00000080: c362 b83e 664a 003d 93da bc3e e02e e8bc
-0.12430278 0.42497283 -0.4190687 -0.1910335 -0.47177646 0.27177405 0.13669133 -0.30366936
0.1880543 0.3229407 -0.04214932 -0.310912 -0.04352561 -0.30078137 -0.3339323 -0.56135654
0.5741348 0.2694861 0.5559025 -0.13599372 -0.069505475 -0.46027598 -0.4612706 -0.2945447
-0.25993872 -0.43484774 0.48339885 0.36674604 -0.047441967 -0.39303863 0.5099586 -0.5434421
0.3601285 0.031320952 0.3688551 -0.028342664

lstm.weight_hh_l1 f4 [12, 3]
00000000: b67c 45be 7f40 53be b896 d6be 9b8d a4be
00000010: 64d3 b4be baff 20be 6de4 ac3e f8e5 063f
00000020: ad6d f9bd 98f6 013f 71a8 87be 42a9 cdbd
00000030: 18fb e03e 9cf4 b3be 0c16 18bf cdd7 923e
00000040: cdc0 a4be a16a 843e 4d58 4d3e 28f5 853e
00000050: 9838 c73e 6976 cd3c abac 48be a16f 07be
00000060: 6d17 333d 5831 b63c 051b 8c3e 681f 1c3e
00000070: 2f10 f2bd 8125 1e3d 82e8 b83e 4a22 d2be
00000080: a5a3 9e3e ce9e b53e cb9f 0bbf 9692 c6be
-0.19285855 -0.20630072 -0.41911864 -0.32139286 -0.35317528 -0.15722552 0.33768025 0.52694654
-0.12179122 0.507669 -0.26495698 -0.10042049 0.4394157 -0.3514756 -0.5940864 0.28680268
-0.32178345 0.258626 0.20053215 0.26163602 0.38910365 0.025080876 -0.19597118 -0.13226177
0.043723512 0.022240326 0.27364364 0.15246356 -0.11819493 0.038609985 0.3611489 -0.41041785
0.30984226 0.3547272 -0.545407 -0.3878371

lstm.bias_ih_l1 f4 [12]
00000000: e2c6 903e bf0b 9d3e 96d4 063f 8e75 243e
00000010: d7a6 f5be a64f 033f 98b4 d73d 1bd0 95bd
00000020: 5008 35be c428 d13e 8941 b6bc 7eb7 6ebe
0.28276736 0.30673024 0.5266813 0.16060469 -0.4797885 0.5129341 0.105324924 -0.073150836
-0.17678952 0.40851414 -0.022248046 -0.23312184

lstm.bias_hh_l1 f4 [12]
00000000: 04f2 bd3e 3b59 ce3e 333a 98bd 9b3e 36bd
00000010: 7f74 393d 830e e93e 2b2c 92be a012 21bf
00000020: 8475 e0be 2640 123f 30b9 653e 7a40 e43e
0.37098706 0.40302452 -0.074329756 -0.0444933 0.045277115 0.45518884 -0.28549322 -0.62919044
-0.43839657 0.5712913 0.22433925 0.44580442

fc.weight f4 [1, 3]
00000000: 41e2 c4be 05b1 a1bd 4c38 363e
-0.38453868 -0.07895092 0.17794913
