policy_reinforce_gcn_lstm/save/model_trial_11_h4_lr0.00187_g0.902.pth (torch, 5485 bytes, 13 tensors)

conv1.bias f4 [4]
0	0x3d8c4c77	0.06850522
1	0xbe19ac8e	-0.1500723
2	0xbda580e6	-0.08081226
3	0x3c1839bc	0.009291109

conv1.lin.weight f4 [4, 4]
0	0x3f2fbd4b	0.68648213
1	0x3c26a8f3	0.010172117
2	0x3e62d690	0.22152162
3	0x3f665a57	0.899816
4	0x3f84b415	1.0367457
5	0x3f59dfe4	0.85107255
6	0xbf7ceff6	-0.9880365
7	0xbe790712	-0.24319103
8	0xbf7098d1	-0.9398318
9	0x3ecaf5ee	0.39640754
10	0xbe3c5f97	-0.1839584
11	0x3e502c4d	0.203294
12	0x3f8d2b9f	1.1028937
13	0x3e619a0a	0.22031417
14	0x3e668dc3	0.22515015
15	0x3ce002e3	0.027345126

conv2.bias f4 [4]
0	0x00000000	0.0
1	0x00000000	0.0
2	0x00000000	0.0
3	0x00000000	0.0

conv2.lin.weight f4 [4, 4]
0	0xbe844c0c	-0.2583927
1	0xbf1b1032	-0.6057159
2	0x3d020201	0.031740192
3	0x3e5985d0	0.21242452
4	0xbe5ef623	-0.21773581
5	0xbf39f423	-0.7263815
6	0x3f5d334c	0.864064
7	0x3f3fb3cb	0.7488372
8	0xbd6aba94	-0.05730684
9	0x3f18e43f	0.59723276
10	0x3d1dbc46	0.03850963
11	0x3e80d13b	0.2515963
12	0x3db0e46a	0.086373165
13	0x3f4bb158	0.7956748
14	0xbf044edb	-0.51682824
15	0x3f03c683	0.5147478

lstm.weight_ih_l0 f4 [16, 4]
0	0x3e988ae6	0.2979347
1	0xbed79613	-0.42106685
2	0x3e024edb	0.12725393
3	0x3e018ac5	0.12650593
4	0x3e39c8b9	0.18142976
5	0xbe72374e	-0.2365391
6	0x3edfb1f3	0.43690452
7	0xbdc8ebe3	-0.09810617
8	0xbeca63fe	-0.39529413
9	0xbdb39a30	-0.08769643
10	0xbe5223e2	-0.205215
11	0xbebf836f	-0.37404963
12	0x3d4e031f	0.050295945
13	0x3e447e0f	0.19188713
14	0x3eb3479c	0.3501557
15	0x3ec718d1	0.3888612
16	0x3ec506a8	0.3848164
17	0xbe3e3f00	-0.1857872
18	0x3eeb3b60	0.45943737
19	0xbefed0dc	-0.49768722
20	0xbed0a21f	-0.4074869
21	0xbec73806	-0.3890993
22	0xbea10585	-0.31449524
23	0xbc086d4e	-0.0083268415
24	0x3ef7f05e	0.48425573
25	0x3ee096ba	0.43864995
26	0x3d0365b0	0.0320794
27	0x3ec9f7ae	0.39446777
28	0x3ed70194	0.41993392
29	0xbe32b8fb	-0.17453377
30	0xbe6e24c2	-0.2325621
31	0x3e9fe9cf	0.3123307
32	0xbe58dc44	-0.21177775
33	0x3dfab180	0.12240887
34	0x3ed7a682	0.42119223
35	0x3e95336a	0.29140788
36	0xbe21bf5c	-0.15795654
37	0x3e34634d	0.17616005
38	0x3eeb96a4	0.46013367
39	0xbe9a08db	-0.3008488
40	0x3eb9f49e	0.3631944
41	0xbec3d98a	-0.38251907
42	0x3df50a50	0.119648576
43	0xbe3c634c	-0.18397254
44	0xbe449eb9	-0.19201173
45	0x3d998aa5	0.074971475
46	0xbe8178f2	-0.25287586
47	0x3ece7757	0.40325424
48	0xbddb1a13	-0.10698333
49	0xbeb018fb	-0.3439406
50	0xbedd106e	-0.43176597
51	0xbef2ec15	-0.4744574
52	0x3ecc29a7	0.39875528
53	0x3d9494ec	0.07254967
54	0x3ebe6b37	0.37191173
55	0x3e23dde9	0.16002621
56	0x3ded4101	0.11584664
57	0xbedea156	-0.43482465
58	0x3ed5cb49	0.41756657
59	0xbe2040f8	-0.15649784
60	0x3dd48559	0.103769965
61	0x3cc67461	0.024225416
62	0xbc87e940	-0.016590714
63	0x3d98c0cb	0.07458647

lstm.weight_hh_l0 f4 [16, 4]
0	0xbeaf8232	-0.3427902
1	0x3ef81b6a	0.48458415
2	0xbd9a4548	-0.075327456
3	0xbeb1acec	-0.3470224
4	0xbee122ee	-0.43971962
5	0xbee9cc9a	-0.4566391
6	0x3e91a06e	0.2844271
7	0x3ea02f14	0.31285918
8	0xbec0236c	-0.37527025
9	0xbe8195d4	-0.25309622
10	0xbc64f340	-0.013974011
11	0x3ee33bfc	0.44381702
12	0x3d21b260	0.039476752
13	0x3e6b25fc	0.22963709
14	0x3d495350	0.04915172
15	0x3ea668de	0.32501882
16	0xbe2ead9c	-0.17058414
17	0x3ef8b00a	0.48571807
18	0x3e95d03c	0.29260433
19	0x3ded8f00	0.11599541
20	0xbe5e59e8	-0.21713984
21	0xbe802f0d	-0.25035897
22	0x3df038d0	0.11729586
23	0xbe3fb5f5	-0.18721755
24	0x3ec0e0ec	0.37671602
25	0x3eb5b51c	0.35489738
26	0xbe3730d0	-0.17889714
27	0xbec5c926	-0.38630027
28	0x3e98d7c2	0.2985211
29	0x3ee5cea8	0.4488423
30	0xbee7086a	-0.45123607
31	0x3e65f8f6	0.22458252
32	0xbefd20d8	-0.4943912
33	0xbeb356ba	-0.35027105
34	0x3ec19530	0.37809134
35	0xbec2e89a	-0.38068086
36	0x3dfc6570	0.12324035
37	0xbeaedee5	-0.3415443
38	0xbe2ddee8	-0.16979563
39	0xbebd1a20	-0.36933994
40	0xbe33d04c	-0.17559928
41	0xbe47e51c	-0.19520992
42	0xbcf91d40	-0.030409455
43	0xbee099d4	-0.43867362
44	0x3e97cab8	0.2964685
45	0xbe9c634c	-0.30544508
46	0xbe8c0760	-0.27349377
47	0xbec51dc2	-0.38499266
48	0xbe84b640	-0.25920296
49	0x3ebf70f4	0.37390864
50	0xbddb9ec8	-0.107236445
51	0x3edccb12	0.4312368
52	0xbe06c5b4	-0.13161355
53	0x3ef0184e	0.46893543
54	0x3e803814	0.25042784
55	0x3e978b93	0.29598674
56	0xbde85bf0	-0.11345661
57	0xbeed11e2	-0.46302706
58	0xbd95c1a8	-0.073123276
59	0x3ed80bf3	0.42196617
60	0xbd322e60	-0.043501258
61	0xbe3ce1fe	-0.18445584
62	0xbe778e94	-0.24175483
63	0x3e54b212	0.20771053

lstm.bias_ih_l0 f4 [16]
0	0x3d244948	0.04010895
1	0xbeb7d396	-0.35903615
2	0x3e962cda	0.29331094
3	0x3e28e1f5	0.16492446
4	0x3e26ad00	0.16276932
5	0x3eb61d7d	0.35569373
6	0xbdc2e790	-0.09516823
7	0x3e6fe1f2	0.23426035
8	0xbe6435ac	-0.22286099
9	0xbf010eb6	-0.5041307
10	0x3ed17fc6	0.40917796
11	0xbbafd980	-0.005366504
12	0xbece9f53	-0.4035593
13	0xbedaf7bb	-0.42767128
14	0x3daab627	0.08335524
15	0x3e11b818	0.14230382

lstm.bias_hh_l0 f4 [16]
0	0xbdc1daa4	-0.094655305
1	0x3e8954e0	0.26822567
2	0x3cd56f27	0.026053978
3	0x3ead1df0	0.33811903
4	0x3efeee82	0.49791342
5	0xbef7e3d5	-0.4841601
6	0xbde33f70	-0.11096084
7	0x3da4b4dd	0.080423094
8	0xbc4fbbc0	-0.01267904
9	0xbbfaa91c	-0.007649554
10	0x3e1b6954	0.15176898
11	0x3e8bee53	0.27330264
12	0x3df7047c	0.12061402
13	0xbde39d5e	-0.11114
14	0x3d9d14bf	0.07669973
15	0x3eb2c659	0.34916952

lstm.weight_ih_l1 f4 [16, 4]
0	0xbe46123c	-0.19342893
1	0x3c852a9c	0.01625567
2	0x3e3fec73	0.18742542
3	0x3f02db67	0.5111603
4	0xbc645b0d	-0.013937724
5	0xbe31ed72	-0.17375734
6	0xbdc4f302	-0.096166626
7	0xbdc8a146	-0.097963855
8	0x3ee21f52	0.4416452
9	0x3ee42b06	0.44564074
10	0xbe136ac0	-0.1439619
11	0xbdb19760	-0.086714506
12	0xbe67ae1b	-0.2262501
13	0x3e23d185	0.15997894
14	0x3ed61cb5	0.41818777
15	0x3ef68798	0.48150325
16	0x3e70fc71	0.23533799
17	0x3e9f3b75	0.3110005
18	0x3dba66ce	0.0910164
19	0x3ec5fe83	0.3867074
20	0xbe902f4b	-0.28161082
21	0xbe26ddb1	-0.16295506
22	0x3e7c0c1f	0.24613999
23	0x3e793901	0.24338152
24	0xbe9b78da	-0.3036564
25	0x3e901244	0.28138936
26	0x3e7c2a19	0.24625434
27	0x3ef591a7	0.47962686
28	0xbddb664d	-0.10712872
29	0x3ec82955	0.39094034
30	0x3ef7bef6	0.4838788
31	0x3f097eb2	0.53708947
32	0x3e1ce8dd	0.15323205
33	0xbeff7fff	-0.4990234
34	0x3ece2b13	0.40267238
35	0xbee5d4da	-0.44888955
36	0x3e83db14	0.2575308
37	0x3e54ea92	0.20792606
38	0xbe988806	-0.29791278
39	0xbf2a9f83	-0.66649646
40	0xbea5a792	-0.32354409
41	0xbee61d60	-0.44944286
42	0xbeae0dec	-0.33994997
43	0x3e451fb3	0.19250374
44	0xbdc0f32e	-0.09421383
45	0x3d98cd04	0.074609786
46	0x3e9c5601	0.30534366
47	0xbeb6539d	-0.35610667
48	0xbe1f671b	-0.15566675
49	0x3e68b9ec	0.22727174
50	0x3ea6fa62	0.32612902
51	0x3f20b9c4	0.62783456
52	0xbe39a27d	-0.1812839
53	0xbdb6a711	-0.08918584
54	0xbd2cd66a	-0.04219667
55	0x3eb8c67e	0.36088938
56	0x3eda0b18	0.4258659
57	0xbec2c51e	-0.38041013
58	0x3e287b43	0.1645327
59	0xbe0dfed0	-0.13866735
60	0xbee5db35	-0.44893804
61	0x3e06d8e5	0.13168676
62	0x3e5f97f8	0.21835315
63	0x3e6e2dc2	0.23259643

lstm.weight_hh_l1 f4 [16, 4]
0	0xbd96aba7	-0.07356959
1	0xbd7e6585	-0.062108535
2	0xbe176ae3	-0.14786868
3	0xbeeff101	-0.4686356
4	0xbe7882a8	-0.24268591
5	0xbe9e2c9a	-0.30893403
6	0x3ecec69d	0.40385905
7	0xbe75302c	-0.23944157
8	0xbf1d4bfc	-0.6144407
9	0xbedba05d	-0.42895785
10	0x3f4d8152	0.8027545
11	0xbf015cf3	-0.50532454
12	0xbdfb0983	-0.122576736
13	0x3e382335	0.1798218
14	0xbe7c645b	-0.24647658
15	0xbec9ab48	-0.3938849
16	0xbc4ed2bd	-0.012623486
17	0xbec8c67e	-0.39213938
18	0x3e942d4b	0.28940806
19	0xbe60b81a	-0.21945229
20	0xbecece1e	-0.4039163
21	0xbeb6874e	-0.35650104
22	0x3df265dd	0.11835835
23	0xbf0a5c27	-0.54046863
24	0x3da87af5	0.08226577
25	0x3e44a1bb	0.1920232
26	0x3e5af687	0.21383105
27	0xbd2cd1ca	-0.042192258
28	0x3d5df198	0.05418548
29	0xbf2b0ac4	-0.668133
30	0x3e6a4356	0.22877249
31	0x3dc73040	0.09726
32	0x3f014d1f	0.505083
33	0xbeb00625	-0.34379688
34	0xbeae728b	-0.34071764
35	0xbe15bdc6	-0.14623174
36	0xbd8fdc69	-0.07024462
37	0x3f0aa93c	0.5416448
38	0x3eb1f8dd	0.3476018
39	0x3f088512	0.5332805
40	0xbe87ff5b	-0.26562008
41	0xbf115853	-0.567754
42	0xbebe7620	-0.37199497
43	0xbe0faff6	-0.14031968
44	0x3ea5dcbf	0.32394978
45	0x3f136334	0.57573247
46	0xbe9eb51b	-0.30997548
47	0x3e2caeeb	0.16863601
48	0xbdeae68e	-0.11469756
49	0xbe9bd208	-0.3043368
50	0x3e3c9277	0.18415247
51	0x3d6de965	0.05808391
52	0xbea708c2	-0.3262387
53	0xbf3c56ad	-0.73569757
54	0x3dcb5f5e	0.09930299
55	0xbe2f0ae7	-0.17094003
56	0x3cadea7c	0.021229975
57	0xbf1f6aa3	-0.6227209
58	0xbd6db7d1	-0.05803663
59	0xbf039fb8	-0.51415586
60	0xbb0300be	-0.0019989456
61	0xbf68c875	-0.90930873
62	0x3eb3a054	0.35083258
63	0xbec06b04	-0.37581646

lstm.bias_ih_l1 f4 [16]
0	0x3f05a6df	0.5220775
1	0xbe4c652c	-0.19960469
2	0xbde28973	-0.110613726
3	0x3ddc331a	0.10751934
4	0x3eaedf10	0.34154558
5	0x3cc79b26	0.024365973
6	0xbe0d318e	-0.13788435
7	0x3ebc1e58	0.367419
8	0xbe9da070	-0.30786467
9	0xbf158a41	-0.58414084
10	0x3b2fb7fa	0.002681254
11	0xbd623c9f	-0.055233594
12	0x3e6c3453	0.23066835
13	0x3ec1ec5b	0.37875637
14	0xbda1f6e6	-0.0790842
15	0x3f0f0c85	0.5587848

lstm.bias_hh_l1 f4 [16]
0	0x3e7caa11	0.2467425
1	0x3ec0678c	0.37579
2	0x3f0a1359	0.5393577
3	0x3f355e91	0.7084742
4	0x3f03eff1	0.51537997
5	0xbd508532	-0.050908275
6	0x3e349daf	0.17638277
7	0x3e3c33a0	0.18379068
8	0xbebcf275	-0.3690373
9	0xbe977d17	-0.29587623
10	0x3d882826	0.06648283
11	0xbed0d0b3	-0.40784225
12	0x3eb37388	0.3504908
13	0xbdea7d7b	-0.11449715
14	0xbe39f1f7	-0.18158709
15	0x3f02d968	0.51112986

fc.weight f4 [1, 4]
0	0x3c457a80	0.012053132
1	0x3e7c5458	0.2464155
2	0xbd47f170	-0.048814237
3	0x3d383dd0	0.044980824
