policy_reinforce_gcn_lstm/save/model_trial_17_h4_lr0.00007_g0.956.pth (torch, 5357 bytes, 13 tensors)

conv1.att_src f4 [1, 1, 4]
0	0xbee32300	-0.4436264
1	0x3e88550e	0.26627392
2	0xbe2bfd94	-0.16795951
3	0xbf4dd518	-0.8040328

conv1.att_dst f4 [1, 1, 4]
0	0x3f16ab23	0.58854884
1	0xbf1bba0b	-0.60830754
2	0xbf2a5f30	-0.66551495
3	0xbf13f432	-0.5779449

conv1.bias f4 [4]
0	0x3b4a2d77	0.0030849853
1	0x3b1789f4	0.0023122998
2	0xbb4d438d	-0.003132078
3	0x3a5a4b1e	0.00083272334

conv1.lin.weight f4 [4, 3]
0	0x3ed178fa	0.4091261
1	0x3ea2b2c5	0.31777015
2	0xbf3d0c51	-0.7384692
3	0x3dc8db25	0.098074235
4	0x3f32ff4b	0.69920796
5	0x3f13b159	0.57692486
6	0x3ec3d769	0.38250282
7	0x3f1ebded	0.62008554
8	0x3efe231f	0.4963617
9	0xbf4a8504	-0.79109216
10	0x3e077975	0.13229926
11	0xbe8e2a0f	-0.27766463

lstm.weight_ih_l0 f4 [16, 4]
0	0xbe5e2705	-0.21694572
1	0x3e227a60	0.15866995
2	0xbe47927f	-0.19489478
3	0xbeb095ae	-0.34489197
4	0x3ed9dc66	0.42550963
5	0x3e94ff30	0.29100943
6	0x3ecc3928	0.39887357
7	0x3e07325c	0.13202804
8	0xbebfdce8	-0.37473226
9	0xbef1b706	-0.47209948
10	0x3e67e9d3	0.2264779
11	0xbe70db81	-0.23521234
12	0x3e9ea140	0.309824
13	0x3ee0aaff	0.4388046
14	0xbe398355	-0.18116505
15	0x3ebf1abb	0.3732508
16	0xbe84b927	-0.2592251
17	0xbd176853	-0.036964726
18	0x3e8dbbf9	0.27682474
19	0xbe934e20	-0.28770542
20	0x3ea2b0aa	0.3177541
21	0x3eb6088d	0.355534
22	0xbeb4f173	-0.3534046
23	0x3eeec618	0.4663551
24	0xbecbbcfe	-0.39792627
25	0xbee1ebb2	-0.44125134
26	0x3efe6000	0.49682617
27	0x3e85789a	0.26068574
28	0x3d7dd963	0.061974894
29	0xbeaac6a5	-0.3335468
30	0xbe83a143	-0.2570897
31	0xbefa1578	-0.48844504
32	0x3eeacd41	0.4585972
33	0xbbd946eb	-0.0066307685
34	0xbe2249cc	-0.15848464
35	0x3cf67fc4	0.03009022
36	0xbee53d61	-0.4477339
37	0xbe727c13	-0.23680143
38	0x3e9d07a5	0.30669895
39	0xbdc88a04	-0.097919494
40	0x3e90fb30	0.2831664
41	0xbef8417a	-0.48487455
42	0xbee5ee7c	-0.44908512
43	0x3e0e2554	0.13881427
44	0xbe5b1984	-0.21396452
45	0xbe16757c	-0.14693254
46	0xbea6af24	-0.32555497
47	0x3d7d2070	0.061798513
48	0xbd92d378	-0.07169241
49	0xbe3005a0	-0.17189646
50	0x3e899a16	0.2687537
51	0xbed5551e	-0.41666502
52	0xbecf3c26	-0.40475577
53	0x3ebbb48a	0.36661178
54	0x3ed010fe	0.40637964
55	0xbe29e1ac	-0.16589993
56	0x3d9ae69f	0.07563519
57	0xbd824620	-0.063610315
58	0x3c366aca	0.011133859
59	0x3ecdb847	0.40179655
60	0x3d2a2d30	0.041547
61	0x3e1e241c	0.15443462
62	0x3e99c74a	0.30034858
63	0xbec7b9d8	-0.39008975

lstm.weight_hh_l0 f4 [16, 4]
0	0xbece6fea	-0.4031976
1	0x3d7efa12	0.062250204
2	0x3e4c5ffc	0.1995849
3	0x3ee2eb41	0.4432011
4	0x3e32a4fc	0.17445749
5	0x3e8bf376	0.27334183
6	0xbeed0692	-0.46294075
7	0xbdd7a968	-0.105303586
8	0x3ec7cdb9	0.3902414
9	0x3d24c35a	0.040225364
10	0xbed301aa	-0.41212207
11	0xbe8368c5	-0.2566587
12	0xbe96c9b4	-0.29450762
13	0xbc853978	-0.016262755
14	0xbe30bbd5	-0.17259152
15	0xbed12052	-0.4084497
16	0xbef23e58	-0.4731319
17	0x3edf99e1	0.43672088
18	0x3ee1c098	0.4409225
19	0xbeecf23e	-0.46278566
20	0xbecd70a6	-0.40125006
21	0xbef474b1	-0.47745278
22	0x3ca946ef	0.020663707
23	0xbea68ca9	-0.3252919
24	0xbeaf1d63	-0.34202108
25	0xbeaea43c	-0.34109676
26	0x3efadccc	0.4899658
27	0x3eecd27f	0.46254346
28	0xbe1eac2b	-0.15495364
29	0xbdc410e1	-0.09573532
30	0xbe78fc58	-0.24315012
31	0xbac06284	-0.0014677797
32	0x3e8d3ab2	0.27583843
33	0xbec55b0b	-0.38546023
34	0xbeb9a48d	-0.36258355
35	0x3e5e60a9	0.2171656
36	0xbe643459	-0.22285594
37	0xbed0d951	-0.407908
38	0xbec80a69	-0.39070442
39	0x3e8cd0c7	0.27503034
40	0xbdbaefc8	-0.09127766
41	0xbe628e70	-0.22124648
42	0xbe42cf3c	-0.19024366
43	0xbd622960	-0.05521524
44	0xbe8c3944	-0.2738744
45	0x3ed9e762	0.42559344
46	0x3e8bd212	0.27308708
47	0xbe825332	-0.25454098
48	0x3ef784c6	0.48343486
49	0x3e9ff01c	0.31237876
50	0x3e6352cc	0.22199553
51	0x3e123424	0.14277703
52	0x3ea3612b	0.3191007
53	0x3d543f94	0.051818445
54	0x3b7adf63	0.0038280122
55	0x3ef6f29f	0.4823198
56	0xbe252c0f	-0.16130088
57	0xbe3da3d7	-0.18519531
58	0xbe7be08b	-0.24597375
59	0x3ea9157e	0.3302421
60	0x3d958720	0.07301164
61	0xbede2132	-0.433847
62	0x3ed74d04	0.42050946
63	0x3edb2072	0.4279819

lstm.bias_ih_l0 f4 [16]
0	0xbcf90088	-0.030395761
1	0x3efa957c	0.48942173
2	0x3d548d5d	0.051892627
3	0xbdab5c2d	-0.083671905
4	0x3e8b7215	0.27235475
5	0xbe0a94c6	-0.13533315
6	0xbec65eb9	-0.38744143
7	0xbdaa171e	-0.083051905
8	0xbee44fd0	-0.44592142
9	0x3e51fad8	0.20505846
10	0x3edafb8a	0.42770034
11	0x3e8bba18	0.27290416
12	0x3eb9a4bc	0.36258495
13	0x3e222d59	0.15837611
14	0x3dce6f32	0.100798026
15	0xbeb12f08	-0.34606194

lstm.bias_hh_l0 f4 [16]
0	0xbeb4af95	-0.35290208
1	0x3e398808	0.18118298
2	0xbe687a47	-0.22702895
3	0xbe9ede34	-0.31028903
4	0x3e19b07b	0.15008728
5	0xbd5466c1	-0.051855806
6	0xbece38f7	-0.40277836
7	0xbe686ed1	-0.22698523
8	0xbd8ccf5c	-0.06875488
9	0x3cc8877b	0.024478665
10	0xbe9b5400	-0.30337524
11	0xbdae2990	-0.08504021
12	0xbe8e4fb8	-0.27795196
13	0xbd852b00	-0.06502342
14	0x3ea8402f	0.32861468
15	0x3eecb776	0.4623372

lstm.weight_ih_l1 f4 [16, 4]
0	0x3e96c270	0.2944522
1	0x3e8531b5	0.26014486
2	0x3e80b3d6	0.25137204
3	0xbe69c53e	-0.22829148
4	0x3ea0ec36	0.31430215
5	0xbda47ffc	-0.080322236
6	0xbeccd8d0	-0.40009165
7	0xbe9bed24	-0.3045436
8	0xbee210f2	-0.44153553
9	0x3de1008f	0.10986435
10	0x3ee11fd5	0.43969598
11	0x3e2cd311	0.1687739
12	0x3b733c7e	0.0037114914
13	0xbea68d88	-0.32529855
14	0xbef6c471	-0.48196748
15	0xbe164997	-0.1467651
16	0xbed31aa5	-0.41231266
17	0x3dfa20b0	0.12213266
18	0xbce456a7	-0.02787335
19	0xbecc14d4	-0.3985964
20	0xbe90d09d	-0.2828416
21	0x3ebc1cd5	0.36740747
22	0xbe3b1825	-0.18270929
23	0x3e0e88b7	0.1391934
24	0x3ea35579	0.31901148
25	0xbd9252f9	-0.07144732
26	0x3e909ca8	0.2824452
27	0x3e4434db	0.19160788
28	0xbe5bdcf0	-0.21471
29	0xbe0e310e	-0.138859
30	0x3eb1976a	0.34685832
31	0x3ebee76b	0.37285933
32	0x3e38d1b0	0.1804874
33	0x3e9d4040	0.3071308
34	0x3e9afae6	0.30269545
35	0x3ec4dfc1	0.3845196
36	0xbed979e2	-0.42475802
37	0x3e8fd8de	0.28095144
38	0xbece4967	-0.40290377
39	0xbedfe420	-0.43728733
40	0x3ef41176	0.47669572
41	0x3df9060c	0.121593565
42	0xbee79a20	-0.45234776
43	0xbefc4fe2	-0.49279696
44	0x3c6536b6	0.013990095
45	0x3e37ad94	0.17937309
46	0x3e37d6a0	0.17952967
47	0xbd99d70f	-0.07511722
48	0x3ee4c197	0.44678947
49	0xbe4dd648	-0.20101273
50	0x3e6f40d1	0.23364569
51	0xbe8f623f	-0.28004643
52	0x3efb898c	0.49128377
53	0xbec578f6	-0.38568848
54	0xbda238ce	-0.07920991
55	0xbef8c5f7	-0.48588535
56	0x3ed78485	0.42093292
57	0x3ea4c742	0.32183272
58	0xbefb6acd	-0.4910492
59	0xbe293038	-0.165223
60	0xbefa2a70	-0.48860502
61	0xbef97970	-0.48725462
62	0xbe5ba8be	-0.21451089
63	0x3eeb9e31	0.46019128

lstm.weight_hh_l1 f4 [16, 4]
0	0x3df9bab9	0.12193818
1	0xbd95a10c	-0.07306108
2	0x3e1b9b91	0.15196063
3	0x3dc4915f	0.0959804
4	0xbefaa9a7	-0.4895756
5	0x3ef83c43	0.48483476
6	0x3ed446e9	0.4146035
7	0x3ef0b3dc	0.47012222
8	0xbeec211c	-0.4611901
9	0xbe9f336d	-0.31093922
10	0x3e056bb2	0.13029364
11	0x3ef0e592	0.47050148
12	0xbefe67fb	-0.49688706
13	0x3ecfbd52	0.40574127
14	0xbe70d0e8	-0.23517191
15	0xbeed1e6c	-0.46312273
16	0x3e80a7fb	0.2512816
17	0xbd3b09a6	-0.0456635
18	0x3c593d54	0.013259251
19	0x3cd9d8e5	0.026592681
20	0xbe99cfb2	-0.3004127
21	0x3e85503f	0.26037785
22	0x3d09f6c0	0.033682585
23	0xbed40c2a	-0.4141553
24	0x3cae0ccc	0.021246336
25	0xbb2e9cae	-0.0026643681
26	0x3ef9e7fd	0.48809806
27	0x3ee00f17	0.43761513
28	0xbea1d684	-0.31608975
29	0xbe397f27	-0.18114911
30	0x3ede2ac9	0.43392017
31	0xbeaaca77	-0.33357593
32	0x3e5e5a0a	0.21714035
33	0x3dcd3c04	0.10021213
34	0x3e485511	0.195637
35	0x3e2124ae	0.15736648
36	0x3e786c26	0.24260005
37	0xbebae1f1	-0.36500505
38	0x3e7a3fff	0.24438475
39	0x3ee95363	0.45571432
40	0xbd4c4469	-0.04986993
41	0x3dd16a2f	0.10225331
42	0xbef9604e	-0.48706287
43	0xbed5c8f0	-0.41754866
44	0xbc829dff	-0.015944479
45	0xbd8b3007	-0.0679627
46	0x3e86a743	0.26299486
47	0x3d02aa83	0.031900894
48	0x3ef0e656	0.47050732
49	0x3d15cd58	0.036572784
50	0xbe503f4a	-0.20336643
51	0xbea97405	-0.33096328
52	0xbecdb64a	-0.40178138
53	0xbe8042e7	-0.25051042
54	0x3ee06c44	0.438326
55	0xbeb923f9	-0.36160257
56	0xbe09c1c1	-0.13452817
57	0xbe9fc395	-0.31203905
58	0xbe6b26b0	-0.22963977
59	0x3ed0e553	0.4079996
60	0x3e845f69	0.25854042
61	0x3e9a882c	0.30182016
62	0x3ebc0899	0.3672531
63	0x3eaa3a87	0.33247778

lstm.bias_ih_l1 f4 [16]
0	0x3e766ff3	0.24066143
1	0x3ec30ac0	0.3809414
2	0xbd8b2180	-0.06793499
3	0xbc0593ab	-0.008152883
4	0x3cc56dee	0.02410027
5	0x3edc6c81	0.43051532
6	0xbd7237d7	-0.059135284
7	0x3ec4f756	0.38469952
8	0xbe9b0b58	-0.30282092
9	0x3d8c4b45	0.06850294
10	0xbe868efe	-0.2628097
11	0x3e4aba2e	0.19797584
12	0xbd933a95	-0.07188908
13	0xbcfa3601	-0.03054333
14	0x3ef455e7	0.47721788
15	0x3cd5e526	0.026110243

lstm.bias_hh_l1 f4 [16]
0	0x3ed3cc5c	0.4136685
1	0x3e72b4ae	0.23701736
2	0xbe8c21c2	-0.27369505
3	0x3de7f363	0.11325719
4	0xbec8a1c7	-0.39185926
5	0xbe7d3ac0	-0.24729443
6	0xbe3f31bd	-0.18671317
7	0x3e749e58	0.23888528
8	0xbeb6db98	-0.35714412
9	0x3e1de618	0.15419805
10	0x3eb8bc3c	0.3608111
11	0xbe0411de	-0.12897441
12	0xbe6f9d41	-0.23399831
13	0x3d434ca2	0.047680505
14	0x3e4cc82c	0.19998235
15	0x3efaa0e7	0.48950884

fc.weight f4 [1, 4]
0	0xbe94b2b0	-0.29042578
1	0x3efb431c	0.49074638
2	0x3eaa0b62	0.3321181
3	0xbeb262f0	-0.34841108
