policy_reinforce_gcn_lstm/save/model_trial_79_h2_lr0.00078_g0.953.pth (torch, 3775 bytes, 11 tensors)

conv1.bias f4 [2]
-0.012835422 0.0121819815
00000000: a94b 52bc ef96 473c

conv1.lin.weight f4 [2, 3]
0.69044775 0.07571421 0.73029256 -0.99191415 -0.9987027 0.39046687
00000000: 2fc1 303f 0d10 9b3d 74f4 3a3f 16ee 7dbf
00000010: fbaa 7fbf 46eb c73e

lstm.weight_ih_l0 f4 [8, 2]
-0.5825223 -0.3181277 -0.050098862 -0.65335935 0.28010115 0.17394403 -0.029082842 -0.4148329
0.04062442 0.5503046 0.27862784 0.50734174 -0.46152562 0.092297055 0.068290584 0.5989388
00000000: 2e20 15bf a2e1 a2be 7734 4dbd 8f42 27bf
00000010: 6b69 8f3e 621e 323e 243f eebc fa64 d4be
00000020: cb65 263d c3e0 0c3f 4fa8 8e3e 26e1 013f
00000030: 164d ecbe 3d06 bd3d efdb 8b3d 0e54 193f

lstm.weight_hh_l0 f4 [8, 2]
-0.3029733 -0.49040428 -0.04048449 -0.21699794 0.53765863 -0.46434194 0.5008858 0.09970149
0.670168 -0.45556486 -0.4584492 0.34627876 0.59244627 0.65526444 -0.56475806 0.1532488
00000000: 511f 9bbe 4516 fbbe 11d3 25bd b534 5ebe
00000010: ffa3 093f 3abe edbe 0d3a 003f 4b30 cc3d
00000020: 2190 2b3f cc3f e9be dbb9 eabe 734b b13e
00000030: 8faa 173f 69bf 273f fc93 10bf 41ed 1c3e

lstm.bias_ih_l0 f4 [8]
0.5749443 -0.39701167 -0.45545328 -0.5689004 -0.5872042 -0.0015956797 0.07499096 0.34873885
00000000: 8d2f 133f 1d45 cbbe 2c31 e9be 75a3 11bf
00000010: 0453 16bf 2026 d1ba dc94 993d e68d b23e

lstm.bias_hh_l0 f4 [8]
-0.11904651 -0.58855546 0.001427135 -0.094326 -0.27689138 0.39379746 0.3333245 -0.13192025
00000000: a8ce f3bd 92ab 16bf b40e bb3a fd2d c1bd
00000010: b5c4 8dbe d29f c93e 82a9 aa3e 1a16 07be

lstm.weight_ih_l1 f4 [8, 2]
-0.6941468 0.4051886 -0.23289801 -0.61652696 0.4354103 0.626321 -0.5908653 0.3199035
0.037418336 0.6963488 0.3386964 0.6709749 -0.40057155 -0.33350655 0.12788004 0.093394235
00000000: 9bb3 31bf e174 cf3e d17c 6ebe b6d4 1dbf
00000010: 19ee de3e 9356 203f f342 17bf 64ca a33e
00000020: f843 193d ea43 323f 9d69 ad3e 03c5 2b3f
00000030: b717 cdbe 5fc1 aabe fcf2 023e 7a45 bf3d

lstm.weight_hh_l1 f4 [8, 2]
0.015971735 0.1810628 0.27155954 -0.096534714 0.15664457 0.31857124 0.5653795 0.25327608
-0.0870233 -0.13505447 -0.62446827 0.38286597 0.6178812 0.0529651 -0.43489477 0.46248633
00000000: 28d7 823c 8768 393e da09 8b3e feb3 c5bd
00000010: 6f67 203e c51b a33e b6bc 103f 67ad 813e
00000020: 4639 b2bd b84b 0abe 27dd 1fbf 0207 c43e
00000030: 762d 1e3f eff1 583d 87aa debe 02cb ec3e

lstm.bias_ih_l1 f4 [8]
0.22889069 0.6896363 0.23249482 -0.2931017 0.11193732 -0.24137121 -0.26679137 -0.20604086
00000000: 5262 6a3e 018c 303f 1f13 6e3e 6d11 96be
00000010: 653f e53d 042a 77be e198 88be 60fc 52be

lstm.bias_hh_l1 f4 [8]
0.47483057 0.3622415 -0.5278183 -0.4538438 0.4370296 -0.019665964 0.145002 0.15181915
00000000: fe1c f33e b877 b93e 1a1f 07bf 375e e8be
00000010: 58c2 df3e 841a a1bc 677b 143e 7b76 1b3e

fc.weight f4 [1, 2]
-0.16318172 0.59298813
00000000: 1c19 27be 12ce 173f
