policy_reinforce_gcn_lstm/save/model_trial_107_h1_lr0.00378_g0.919.pth (torch, 4216 bytes, 9 tensors)

conv1.lin.weight f4 [1, 4]
00000000: 7c33 81bf b0fc e83e 776a 13bf f1f7 ab3f
-1.0093837 0.45505285 -0.5758433 1.3435041

lstm.weight_ih_l0 f4 [4, 1]
00000000: 4765 ad3d 6609 11bf 22c3 5cbf 3005 433f
0.08466583 -0.56654966 -0.8623525 0.7617979

lstm.weight_hh_l0 f4 [4, 1]
00000000: 6ab2 1e3f 2520 773f 9155 ed3c eaea edbd
0.6199099 0.96533424 0.028971465 -0.11617072

lstm.bias_ih_l0 f4 [4]
00000000: e699 153f bc5b 70bf b0c2 10bf a886 08be
0.58437955 -0.93889976 -0.5654707 -0.13332617

lstm.bias_hh_l0 f4 [4]
00000000: fbc0 c13e 793b e1be b305 e93e c8c3 37be
0.37842545 -0.43990687 0.4551216 -0.17945778

lstm.weight_ih_l1 f4 [4, 1]
00000000: 785c dabb 6354 a13e 907d 3f3f 2e32 d5be
-0.006663855 0.31509694 0.7480097 -0.41639847

lstm.weight_hh_l1 f4 [4, 1]
00000000: 8118 a3bf 95e2 9dbf 1595 9d3f 33aa ffbe
-1.2741853 -1.2334772 1.2311121 -0.4993454

lstm.bias_ih_l1 f4 [4]
00000000: c5b7 ad3f ce26 193f 8093 eebe a75c ef3e
1.3571707 0.59824836 -0.4659691 0.46750376

lstm.bias_hh_l1 f4 [4]
00000000: af75 2b3f d063 1d3e efd3 a5bf 6ada ba3e
0.66976446 0.15370107 -1.2955302 0.36494762
