policy_reinforce_gcn_lstm/save/model_trial_34_h2_lr0.00167_g0.946.pth (torch, 4461 bytes, 13 tensors)

conv1.bias f4 [2]
-0.015785879 -0.00018399105
00000000: 6351 81bc b9ed 40b9

conv1.lin.weight f4 [2, 4]
-0.622925 -1.2303845 -0.69959134 -0.50569147 0.21169351 -0.7926621 -0.1256722 -0.6213734
00000000: 0378 1fbf 3d7d 9dbf 6b18 33bf ff74 01bf
00000010: 2fc6 583e e7eb 4abf 37b0 00be 5412 1fbf

conv2.bias f4 [2]
0.0 0.0
00000000: 0000 0000 0000 0000

conv2.lin.weight f4 [2, 2]
0.37687215 0.37726608 -0.93252546 0.15210484
00000000: 63f5 c03e 0529 c13e fdb9 6ebf 5fc1 1b3e

lstm.weight_ih_l0 f4 [8, 2]
0.07547158 0.27761492 0.30958313 -0.06462653 0.45116472 -0.34532768 0.26912498 -0.10650574
0.59448826 -0.065091506 -0.4349886 -0.36556152 0.5851031 0.31839442 0.054391284 0.4670146
00000000: d890 9a3d 8b23 8e3e ae81 9e3e ea5a 84bd
00000010: 10ff e63e cace b0be c0ca 893e ae1f dabd
00000020: 6230 183f b24e 85bd d3b6 debe e12a bbbe
00000030: 51c9 153f 9804 a33e 65c9 5e3d 8a1c ef3e

lstm.weight_hh_l0 f4 [8, 2]
-0.52691245 0.35968018 -0.23529194 0.3870817 0.41459796 0.06580733 -0.19943458 -0.28560585
-0.05603255 -0.48464492 -0.5364388 -0.3970749 0.45955575 -0.16072287 -0.33625075 0.627937
00000000: bce3 06bf 0028 b83e 5ff0 70be 932f c63e
00000010: 2f46 d43e fec5 863d 9438 4cbe ee3a 92be
00000020: 6382 65bd 6123 f8be 0e54 09bf 674d cbbe
00000030: e44a eb3e 8994 24be 0f29 acbe 7bc0 203f

lstm.bias_ih_l0 f4 [8]
0.19684237 0.46878648 -0.57857525 -0.306167 -0.65645653 -0.260312 0.33562312 0.7122527
00000000: 0c91 493e c804 f03e 821d 14bf ecc1 9cbe
00000010: 890d 28bf 9d47 85be cbd6 ab3e 3156 363f

lstm.bias_hh_l0 f4 [8]
-0.018177796 0.07193947 0.16375484 0.6660843 -0.5612938 -0.54295164 -0.6836028 -0.55185014
00000000: 9ae9 94bc 0055 933d 59af 273e 8084 2a3f
00000010: f3b0 0fbf e1fe 0abf 9800 2fbf 0d46 0dbf

lstm.weight_ih_l1 f4 [8, 2]
-0.18793496 -0.26337948 0.018442973 -0.15331203 -0.29576904 0.09329744 0.5819606 0.47067788
0.49330974 0.33819145 0.37274572 -0.6954997 0.5450008 -0.4215631 0.4245795 0.1301069
00000000: 0672 40be add9 86be b815 973c d4fd 1cbe
00000010: 0a6f 97be ba12 bf3d 5ffb 143f b1fc f03e
00000020: 1893 fc3e 6e27 ad3e 87d8 be3e 450c 32bf
00000030: 2c85 0b3f 1ed7 d7be 7c62 d93e be3a 053e

lstm.weight_hh_l1 f4 [8, 2]
-0.44207275 -0.14565909 0.050435465 -0.8336366 -0.032790553 -0.96519613 0.26365 0.21436602
0.43569198 0.6601634 0.119720355 0.35307455 -0.87968075 -0.6246709 0.2166315 -0.9055142
00000000: 5c57 e2be a827 15be 6b95 4e3d 3569 55bf
00000010: 634f 06bd 1817 77bf 22fd 863e c482 5b3e
00000020: 0513 df3e 7800 293f f22f f53d 30c6 b43e
00000030: c232 61bf 6fea 1fbf a6d4 5d3e c7cf 67bf

lstm.bias_ih_l1 f4 [8]
-0.15870683 0.48137924 -0.14660986 0.5527495 -0.7458118 -0.24736896 0.3753658 0.7710767
00000000: 0b84 22be 5777 f63e e520 16be fe80 0d3f
00000010: 86ed 3ebf 4a4e 7dbe f22f c03e 4865 453f

lstm.bias_hh_l1 f4 [8]
0.06735133 0.10463681 0.43948412 0.0025323736 0.15943922 -0.62520874 0.0036947678 0.5166255
00000000: 7eef 893d d34b d63d 1004 e13e 2ef6 253b
00000010: 0944 233e ae0d 20bf eb23 723b 9241 043f

fc.weight f4 [1, 2]
-0.18963426 -0.3240496
00000000: 7c2f 42be d4e9 a5be
