policy_reinforce_gcn_lstm/save/model_trial_88_h3_lr0.00589_g0.947.pth (torch, 4781 bytes, 13 tensors)

conv1.att_src f4 [1, 1, 3]
00000000: caa9 99be bfef abbe d292 953e
-0.3001235 -0.3358135 0.29213578

conv1.att_dst f4 [1, 1, 3]
00000000: 7947 9fbe 246b 9bbd 1796 66bf
-0.31109217 -0.07588795 -0.9007277

conv1.bias f4 [3]
00000000: 9c45 123e 6442 f8bd 5755 2abd
0.14284366 -0.12122038 -0.041585293

conv1.lin.weight f4 [3, 3]
00000000: 5b55 333e da15 5f3e 741e 013f 4c36 27bf
00000010: 0ba9 483e 0371 90bf 61dc 66bf aff1 1a3f
00000020: 2336 893f
0.1751303 0.2178568 0.5043709 -0.65317225 0.19595735 -1.1284488 -0.9018002 0.6052503
1.0719646

lstm.weight_ih_l0 f4 [12, 3]
00000000: 1f17 613e 2784 2bbd 39ac 8dbc 04e0 003f
00000010: 16f5 2abf 01ce c8be 28b0 1c3e 708c 403d
00000020: 5cb4 493d 36a9 65be ba96 ccbe fb99 253f
00000030: c200 bf3e fb91 663b e111 01be d560 e3bc
00000040: 0945 d9be 5a00 b73e 606d 143f 791a 773e
00000050: 3b01 d53e 4e49 5cbe 8049 f6be d983 b23e
00000060: f96a 0c3e 98d1 d23d 8bf7 153f ff8b c8bc
00000070: 09c2 7e3d 7fc9 513f 1138 723d 1af0 47bf
00000080: 9bdf d53e 9a5b b2bd 9225 1c3d 6130 2a3f
0.21981476 -0.041874077 -0.017294036 0.5034182 -0.6678022 -0.39219669 0.15301573 0.04700893
0.04924427 -0.2242783 -0.39958745 0.6468808 0.37305266 0.0035182226 -0.12604477 -0.027756134
-0.42435482 0.35742456 0.57979393 0.24131192 0.416025 -0.21512339 -0.4810295 0.34866217
0.13712682 0.10293883 0.58580846 -0.024480818 0.062196765 0.81948084 0.0591355 -0.7810074
0.4177216 -0.08708878 0.038121767 0.6648007

lstm.weight_hh_l0 f4 [12, 3]
00000000: c598 da3e 4198 103d 6d1a a8bb 9f38 193f
00000010: 4e18 fcbd 7203 423f c8b4 063f 90e6 853e
00000020: 0007 a43d 6187 253f dbd5 0b3e e463 093d
00000030: 57e1 2b3e 76f2 023e d22b e83e 5c80 5a3e
00000040: a769 6f3e c2ec 163e de10 58bd c853 8e3e
00000050: d73c 6dbb 2054 4e3e 71fb 16be 0e7b 8d3d
00000060: b27c 02be 91c2 8e3d 6d3d 3abe 285c 2f3f
00000070: bf9f b8bd d42c 343e 73fc 423f b9d4 203f
00000080: 3273 393f 2571 ca3e 4db7 adbe eb08 d93e
0.4269468 0.03530145 -0.0051301033 0.5985202 -0.12309323 0.7578651 0.526196 0.26152468
0.08009148 0.64659697 0.13655798 0.03354253 0.16785179 0.12787804 0.45345932 0.21338028
0.23380147 0.14738753 -0.05275046 0.27798295 -0.0036199593 0.20149279 -0.14744355 0.069082364
-0.1274288 0.06970704 -0.18187495 0.68499994 -0.09014844 0.17595226 0.76166457 0.6282459
0.724414 0.39539447 -0.3392891 0.42389616

lstm.bias_ih_l0 f4 [12]
00000000: 1a50 6f3f ef2a cf3e c8dd 01be d954 b3bd
00000010: 1848 933e cbbf 973e 4615 c5be 7e08 283f
00000020: 85b5 f53e b196 443f 9dae a83e 4ecc 393f
0.934816 0.40462443 -0.12682259 -0.08756418 0.2876594 0.29638514 -0.38492793 0.6563796
0.4799005 0.76792437 0.3294572 0.7257737

lstm.bias_hh_l0 f4 [12]
00000000: 657b dc3e 4aec b7be 4160 123f f0ce 633e
00000010: 87f0 4bbe f1a9 663d 90f6 f6bb 0440 713e
00000020: 0285 9a3e 35ab 093f 5b32 10bd 2da3 14be
0.43062893 -0.35922462 0.5717812 0.22246909 -0.19915973 0.056314413 -0.0075367168 0.23559576
0.30179602 0.53776866 -0.035204273 -0.14515372

lstm.weight_ih_l1 f4 [12, 3]
00000000: 84e9 f53e 7610 0f3d 308a 843d 65c9 5c3f
00000010: 9e78 843e dea7 073f 3960 613e 6561 273f
00000020: 5d08 55bb 989b b2bd 7aba c93d 081a 793e
00000030: 2920 133f a0c5 263f a88d 733f c469 543f
00000040: da7b 223f 7b46 293f b997 df3d 27c0 32be
00000050: dd2f 2c3f 9888 c93e 1335 f63d 4a6c 383f
00000060: 9eeb 8e3f 83cb 9c3e ef9b 283f 5bbb 25bf
00000070: 0526 12bf dce0 30bd 4688 263f 56e6 853e
00000080: 7eb1 b93e 7551 da3e 6118 2d3f 5c7b 873f
0.4802972 0.034927808 0.0647167 0.86244804 0.25873274 0.5299052 0.22009362 0.6538299
-0.0032506206 -0.087210834 0.09850021 0.24326336 0.5747095 0.651453 0.95138025 0.82973886
0.6347023 0.6612317 0.10917611 -0.17456113 0.67260534 0.39362025 0.12021842 0.72040236
1.1165655 0.30624017 0.65862936 -0.64739007 -0.57089263 -0.043183193 0.65051687 0.26152295
0.36268228 0.42640272 0.67615324 1.0584521

lstm.weight_hh_l1 f4 [12, 3]
00000000: 8871 debe c8f0 82bd cac6 a9be 73cf 13bf
00000010: 6d36 dc3d ba02 f83e 774d 0abe 6202 143e
00000020: 4a80 9cbd eb92 7ebe 9b4f f3bc 02b5 623c
00000030: 3485 bcbd 7635 0dbe 189f c43e cf5b ccbe
00000040: 2fb6 5e3f 37fe 113f 9d61 d4be 96cf 78be
00000050: b343 d3be 2ffe 9abe 5d9c 503e 1093 9e3e
00000060: a477 b83d 3f17 393e 1755 133d 6542 c13d
00000070: d31f 493e b800 803d d9c1 483e 07ba 773f
00000080: 464c ce3e a143 67bf bba5 693e 0557 e5bc
-0.43445992 -0.06393582 -0.33159477 -0.5773842 0.107525684 0.4843958 -0.13506113 0.14454034
-0.07641657 -0.24860732 -0.029701045 0.013837101 -0.09205094 -0.13789925 0.3840263 -0.39913794
0.8699674 0.57028526 -0.41480723 -0.24297938 -0.41262588 -0.30272052 0.20372148 0.30971575
0.09007195 0.18075274 0.03596982 0.09436492 0.19641046 0.06250137 0.19605197 0.9676823
0.40292567 -0.9033757 0.22817127 -0.027995596

lstm.bias_ih_l1 f4 [12]
00000000: d6b1 1ebd 5c49 843e 4399 333f 87ab 683c
00000010: ae9a e9bc 2913 a93d b940 a5bd b53c 353f
00000020: 9fe1 453f 9e1c dbbe 2747 763f 10ba 5c3f
-0.038743816 0.2583722 0.70155734 0.014201052 -0.02851614 0.08255608 -0.080689855 0.70795757
0.77297395 -0.4279527 0.9620232 0.8622141

lstm.bias_hh_l1 f4 [12]
00000000: 4fa9 c13e 820f e2bd 5a60 703f 147d 10bf
00000010: 631e c53e 3be4 063f 22cb 49be 5944 623f
00000020: 70f1 be3d b45b 1dbf e876 1f3f 77fe 0e3f
0.37824485 -0.11038114 0.9389702 -0.56440854 0.38499746 0.52692 -0.19706395 0.8838554
0.09323394 -0.6146805 0.6229081 0.5585703

fc.weight f4 [1, 3]
00000000: e6c7 8dbe 8122 883e ee36 6e3e
-0.27691573 0.26588824 0.23263142
