policy_reinforce_gcn_lstm/save/model_trial_707_h3_lr0.00422_g0.987.pth (torch, 4920 bytes, 13 tensors)

conv1.bias f4 [3]
0	0xbe9b96d3	-0.30388507
1	0xbcbfacc5	-0.023397813
2	0x3bcc6866	0.006238031

conv1.lin.weight f4 [3, 4]
0	0x3f6225b6	0.8833879
1	0xbfa737f1	-1.3063947
2	0x3ecd84e9	0.40140465
3	0x3f3d4a2f	0.7394132
4	0x3ea7abd8	0.32748294
5	0xbf11c9f2	-0.5694877
6	0xbf8c6697	-1.0968808
7	0x3f19819f	0.5996341
8	0x3e88fd24	0.2675563
9	0x3e80932b	0.2511228
10	0x3f1acf16	0.6047224
11	0xbf001891	-0.50037485

conv2.bias f4 [3]
0	0x00000000	0.0
1	0x00000000	0.0
2	0x00000000	0.0

conv2.lin.weight f4 [3, 3]
0	0xbf61b7a6	-0.8817085
1	0xbf48a184	-0.78371453
2	0xbe8879cc	-0.26655424
3	0xbf115d48	-0.5678296
4	0xbef10d2c	-0.47080362
5	0xbec6f3c4	-0.38857853
6	0xbe3a6598	-0.18202817
7	0xbf443210	-0.7663889
8	0xbf396436	-0.72418535

lstm.weight_ih_l0 f4 [12, 3]
0	0xbec62f6f	-0.38708064
1	0x3e8d1e3c	0.2756213
2	0xbd7fbec3	-0.062437784
3	0xbedaed00	-0.42758942
4	0xbf003a71	-0.50089175
5	0x3da4a4e2	0.080392614
6	0xbeef22f3	-0.46706352
7	0x3da56b86	0.08077149
8	0x3e07d97e	0.1326656
9	0xbee1055c	-0.439494
10	0xbc8cec95	-0.017202655
11	0x3f0cea10	0.5504465
12	0x3eb21152	0.3477884
13	0x3dba1376	0.09085743
14	0xbd4fafb6	-0.05070468
15	0x3dc5b3c3	0.096534275
16	0x3dce0eb8	0.10061401
17	0x3ec97a6c	0.39351213
18	0xbf10069e	-0.562601
19	0x3e890886	0.26764315
20	0xbdb339d9	-0.08751268
21	0x3d9da9fe	0.07698439
22	0x3f204d04	0.62617517
23	0xbf27e447	-0.655827
24	0x3e1b42e5	0.15162237
25	0x3eecc11c	0.4624108
26	0xbe4b4ff7	-0.19854723
27	0xbe124179	-0.14282788
28	0xbf08f512	-0.5349895
29	0x3e0f955d	0.14021821
30	0xbe2a8b02	-0.1665459
31	0xbf105f36	-0.5639528
32	0x3dd52bb3	0.104087256
33	0x3e0676b2	0.13131216
34	0xbe3c1814	-0.1836856
35	0x3ed4aa8f	0.41536376

lstm.weight_hh_l0 f4 [12, 3]
0	0x3d43c9af	0.047799762
1	0xbe205bdc	-0.15660042
2	0x3ea55eca	0.3229888
3	0x3f01d54e	0.507161
4	0x3ea8415a	0.3286236
5	0x3eec0fdd	0.46105853
6	0x3f1a69dd	0.60317785
7	0x3e8cbb48	0.27486634
8	0xbeba4bf8	-0.36386085
9	0x3f16f7cd	0.58971864
10	0xbf079d65	-0.5297454
11	0xbe1faa74	-0.15592366
12	0x3dcaa035	0.09893838
13	0x3eb24856	0.34820813
14	0xbed5d8a4	-0.41766846
15	0x3d5b06e0	0.053473353
16	0xbdc6a769	-0.096999
17	0xbe8b7d2a	-0.2724393
18	0x3eb58722	0.3545466
19	0x3e0c876b	0.13723533
20	0xbf059dad	-0.5219372
21	0xbed7f00e	-0.42175335
22	0x3f0e75e1	0.5564862
23	0xbec14a9a	-0.3775223
24	0x3ecc9d7f	0.3996391
25	0x3eaf911e	0.34290403
26	0xbeb0bc2f	-0.34518573
27	0x3e569440	0.2095499
28	0xbe8eb1e5	-0.27870098
29	0xbef09d3e	-0.46994966
30	0xbc179f23	-0.00925425
31	0xbf183944	-0.5946238
32	0xbf17bab3	-0.59269255
33	0xbea4c252	-0.32179505
34	0x3d07bef2	0.033141084
35	0xbe153980	-0.14572716

lstm.bias_ih_l0 f4 [12]
0	0xbe0d3d65	-0.13792951
1	0xbdb6a61e	-0.08918403
2	0x3f07cd3d	0.53047544
3	0x3d8fdabc	0.07024142
4	0x3e71bd05	0.23607261
5	0x3f34623f	0.7046241
6	0xbe7c5442	-0.24641517
7	0xbf2526ec	-0.64512515
8	0xbe94d03e	-0.29065126
9	0xbe99e54f	-0.3005776
10	0x3efb5404	0.49087536
11	0x3eb2e800	0.34942627

lstm.bias_hh_l0 f4 [12]
0	0xbeccc802	-0.39996344
1	0x3f185b12	0.5951396
2	0x3ded874c	0.115980715
3	0xbeb0ab90	-0.34505892
4	0x3e8a43cd	0.27004853
5	0x3f25d711	0.6478129
6	0xbea52e04	-0.3226167
7	0xbe366cc6	-0.17814931
8	0x3ec830bc	0.3909968
9	0x3dad4202	0.084598556
10	0x3f4c1aa4	0.7972815
11	0xbe3fb462	-0.18721154

lstm.weight_ih_l1 f4 [12, 3]
0	0x3f24fe35	0.6445039
1	0xbf538e67	-0.82639164
2	0xbee6a3c5	-0.4504682
3	0xbcdd1c46	-0.02699102
4	0xbf68ab0a	-0.90885985
5	0xbf881c42	-1.0633624
6	0xbe152919	-0.14566459
7	0x3ebed1ab	0.3726934
8	0xbf27dde4	-0.65572953
9	0x3cac03c9	0.020997899
10	0xbf039b24	-0.514086
11	0xbe97c855	-0.2964503
12	0x3f2550de	0.6457652
13	0xbe6051d2	-0.21906212
14	0x3d2e711a	0.04258833
15	0xbc527d52	-0.0128472615
16	0x3e461dde	0.19347331
17	0x3cf5ecd7	0.03002016
18	0xbe82cb49	-0.2554572
19	0x3eb82ec6	0.35973185
20	0x3e034e0d	0.12822743
21	0xbe9454cb	-0.28970942
22	0x3d37b161	0.044846896
23	0x3f3697b6	0.7132524
24	0x3e7ce845	0.24697979
25	0x3de218ef	0.11039912
26	0xbf221dd4	-0.63326764
27	0x3f14dfe2	0.5815412
28	0x3dfc3fa0	0.12316823
29	0xbf3c2dd6	-0.7350744
30	0x3c06ba0f	0.008223071
31	0xbf0a072d	-0.539172
32	0xbf7f06d8	-0.9961982
33	0x3e10c55f	0.14137791
34	0xbeaf26c6	-0.3420927
35	0xbf0ac27d	-0.54203016

lstm.weight_hh_l1 f4 [12, 3]
0	0xbf32cc75	-0.69843227
1	0xbdcf5c07	-0.10124975
2	0x3f32718e	0.6970452
3	0xbea085dc	-0.31352127
4	0xbeda677d	-0.4265708
5	0x3e1ff0e8	0.15619242
6	0xbe68786e	-0.2270219
7	0x3df18367	0.11792641
8	0x3e83a44f	0.25711295
9	0x3d066b57	0.03281721
10	0xbf746528	-0.9546685
11	0x3e1c04da	0.15236226
12	0xbe47252a	-0.1944777
13	0xbeaec872	-0.34137303
14	0xbba36c1d	-0.0049872533
15	0xbe9ab454	-0.30215704
16	0x3f3050b1	0.68873125
17	0x3ed492fe	0.41518396
18	0xbdf96f12	-0.12179388
19	0x3e751c44	0.23936564
20	0xbee249bc	-0.4419688
21	0x3e886108	0.2663653
22	0x3d75cb12	0.060008116
23	0xbe493239	-0.19648065
24	0x3ee08ecb	0.43858942
25	0x3dd3ba82	0.10338308
26	0x3e91cbd0	0.2847581
27	0xbf6c8541	-0.9239083
28	0xbe9beea9	-0.3045552
29	0x3f809549	1.0045558
30	0xbf442dc6	-0.76632345
31	0xbf7cdf37	-0.987781
32	0x3f10c7aa	0.56554663
33	0xbea7ded4	-0.32787192
34	0xbe16a785	-0.14712341
35	0xbed9f59f	-0.42570207

lstm.bias_ih_l1 f4 [12]
0	0x3f59a6a5	0.85019904
1	0x3e2320a3	0.15930419
2	0xbec2f40c	-0.38076818
3	0xbe1e096d	-0.15433283
4	0x3f221187	0.63307995
5	0xbd034837	-0.03205129
6	0xbed7f210	-0.42176867
7	0xbe9f868a	-0.31157333
8	0xbdc2ad33	-0.095056914
9	0x3f7300ff	0.94923395
10	0x3f29c0de	0.66309917
11	0x3e47e9be	0.1952276

lstm.bias_hh_l1 f4 [12]
0	0x3dbaaa68	0.09114534
1	0x3f1dcc15	0.6163953
2	0x3e979307	0.2960436
3	0x3f49995a	0.7874962
4	0x3e3081e8	0.17237055
5	0xbee12d87	-0.43980047
6	0xbee11896	-0.4396407
7	0xbf264804	-0.6495364
8	0x3f083414	0.53204465
9	0x3e7884a1	0.24269344
10	0x3f04b3da	0.5183693
11	0xbe8c6a20	-0.27424717

fc.weight f4 [1, 3]
0	0x3efd3c73	0.49460182
1	0xbe79f7ea	-0.24410978
2	0xbe9a1d54	-0.301005
