policy_reinforce_gcn_lstm/save/model_trial_804_h3_lr0.00853_g0.961.pth (torch, 4920 bytes, 13 tensors)

conv1.bias f4 [3]
00000000: 9574 8abe 7a9c 22bb d889 02be
-0.2704207 -0.0024812506 -0.12747896

conv1.lin.weight f4 [3, 4]
00000000: cc74 b43e 80cd bcbf bc3e 8b3e 0a39 6cbc
00000010: 201a 4bbe 08b6 a43f d76f 12bf 3d32 7b3f
00000020: 9a04 4a3e 9ea6 26bf e27c 1cbf 152f 30bf
0.3524536 -1.4750214 0.271963 -0.014417896 -0.19834185 1.2868052 -0.57201904 0.9812353
0.19728318 -0.6509799 -0.61128056 -0.6882184

conv2.bias f4 [3]
00000000: 0000 0000 0000 0000 0000 0000
0.0 0.0 0.0

conv2.lin.weight f4 [3, 3]
00000000: 9a0b 2e3f ccfd 1f3f 9c2a 5b3f ee81 18bf
00000010: 783a 5ebf 5a98 0abf e66c 68bf dc8d 0fbf
00000020: 10d6 fd3d
0.6798645 0.6249664 0.8561189 -0.59573257 -0.86807966 -0.5413872 -0.90791166 -0.56075835
0.12394345

lstm.weight_ih_l0 f4 [12, 3]
00000000: 0d0b d33b ebb8 39bf 8be9 803d d2a5 a1bd
00000010: 5856 083f aed1 0dbe 6d35 d0be 769a 34be
00000020: 574f 81be e1f2 cdbe 185d 893d 8bac a1be
00000030: b72d f93d 8dd7 933e 41b3 00be 994d a8be
00000040: 3fbb 073f a050 f2be 9ddb 833d 33c5 bc3e
00000050: 88c7 14bf f244 68be 7beb e73e 1b19 283d
00000060: 812f 69be f8be 163f b3e6 a93e 0046 4abe
00000070: f3aa a4be cb81 173e 7938 08bf 8c9e 6c3e
00000080: 7e04 90be 727b d6bd 368b 163f f73a 44bd
0.0064405263 -0.7254779 0.06294545 -0.07892956 0.5325675 -0.13849518 -0.4066576 -0.17637047
-0.25255844 -0.40224364 0.06707209 -0.31576952 0.121669225 0.2887539 -0.1256838 -0.32871702
0.5302009 -0.47327137 0.06438372 0.368692 -0.5811696 -0.2268255 0.45296845 0.041039567
-0.22772028 0.58885145 0.33183822 -0.19753265 -0.32161674 0.14795606 -0.5321117 0.23107356
-0.28128427 -0.10472764 0.5880617 -0.047907796

lstm.weight_hh_l0 f4 [12, 3]
00000000: 2f19 99bc d977 03be b8b3 f8be 5604 a53e
00000010: 0fe5 a83d 8990 14be 61de 7cbe f154 8dbe
00000020: ed88 603d 3295 22be 6573 2fbf 660c 2fbf
00000030: 5819 eabd de5f bf3d e64d 493f d447 843e
00000040: 6d34 443e 848c 1c3f 8675 05bf 8f0f 3ebe
00000050: 7f9d 7d3e a7e0 3c3e bb53 3d3f d277 233e
00000060: cff6 3a3f a298 c73c 04eb 753d e985 2fbe
00000070: 6512 893e f649 5cbe b782 71be 0975 3ebd
00000080: a77d 8f3e 1546 a93e cb6a b53d 39c5 6c3f
-0.018688766 -0.12838687 -0.48574615 0.3222987 0.082468145 -0.14508261 -0.24694206 -0.27603868
0.054818083 -0.15877226 -0.68535453 -0.68378294 -0.11430615 0.09344457 0.7863449 0.2583605
0.19160624 0.6115191 -0.5213245 -0.18560623 0.24767111 0.18445073 0.7395589 0.15963677
0.7303285 0.024364773 0.06003858 -0.17140926 0.26771846 -0.21512589 -0.2358502 -0.046498332
0.28025553 0.3306128 0.0885826 0.9248844

lstm.bias_ih_l0 f4 [12]
00000000: 9b03 b5be f5d9 2ebd ae3f 133f 3d58 9abe
00000010: a0ab 373f 2f13 de3d ef92 843e 3582 8abc
00000020: aaa7 d03e 7181 90be e0a8 13be 167a 053f
-0.35354313 -0.04268833 0.5751904 -0.30145445 0.71746254 0.10843503 0.2589335 -0.01690779
0.40752918 -0.28223756 -0.1441989 0.52139413

lstm.bias_hh_l0 f4 [12]
00000000: de3f ef3d 91a7 a73e 7bbb c8be 252f 4a3e
00000010: 654d c03e ae54 6fbe d152 293e f833 5d3e
00000020: 3052 e33e e4fc c9bc c3b4 fb3e 6e41 013e
0.116821036 0.3274503 -0.39205536 0.19744547 0.37559047 -0.23372146 0.16535498 0.21601856
0.44398642 -0.02465672 0.49161348 0.12622616

lstm.weight_ih_l1 f4 [12, 3]
00000000: 0ecd 2ebe e711 c43d 0b27 5d3f e6a6 9b3e
00000010: 6faf 253e 5177 ce3e 7077 603f 839f 183f
00000020: 57c7 373e 59ec 5a3f 6100 803e da30 8e3e
00000030: 240e 193e 42ce 043f 13ea c13e 780a f6bd
00000040: d9ab 9d3e 1d4f 603f 08b9 bfbb e444 1f3f
00000050: fea2 453f 2edf 94be e1ac 4bbf 0364 09bf
00000060: 043c 3fbe ef93 683f d81d 8b3f 8fc7 d53d
00000070: 2770 473f fb52 883f 8b29 3ebe af7c 5d3f
00000080: eec6 0a3f 4a30 503e 489e cf3e a67b 043f
-0.1707041 0.09573727 0.863877 0.3040077 0.16180204 0.40325406 0.8768225 0.59618396
0.17947136 0.8551689 0.2500029 0.27771646 0.149468 0.51877224 0.37873897 -0.120137155
0.30795172 0.8762072 -0.005850915 0.62214494 0.7720183 -0.29076523 -0.7956067 -0.5366823
-0.18675238 0.9085073 1.0868483 0.104384534 0.77905506 1.0650324 -0.18570535 0.8651838
0.5420979 0.20330921 0.40550447 0.5175117

lstm.weight_hh_l1 f4 [12, 3]
00000000: 1181 213f 36b5 cebe b1ee c13e 91d8 033f
00000010: 5e87 b4be db8e 1c3f c5a9 3bbc e4f8 40be
00000020: 6621 873f edcb 183e 004f 00be 4ede d23e
00000030: 800e 863e 0d21 93be ab29 163f 011c 3a3f
00000040: f5cc 4ebf 1f57 dc3e 8366 5a3e b9f0 56bf
00000050: 0a20 433f 7706 c73d 59bc d23d 67c9 ac3c
00000060: be1e c23e cf85 d83c c610 033e d43d 513f
00000070: 7e53 5fbd e8a5 643f a6ac ba3e a618 66be
00000080: da80 a33f 0d48 0b3f b389 4cbf bc99 8e3f
0.63087565 -0.40372628 0.3787742 0.5150233 -0.35259527 0.6115548 -0.01145405 -0.18844944
1.0557067 0.14921542 -0.12530136 0.4118523 0.26182938 -0.28736153 0.5865733 0.7269898
-0.8078149 0.43035218 0.21328168 -0.83961064 0.7622076 0.0971803 0.10289831 0.02109213
0.3791408 0.026430992 0.12799367 0.8173497 -0.054522984 0.8931565 0.36459845 -0.2247034
1.2773697 0.54406816 -0.7989761 1.1140666

lstm.bias_ih_l1 f4 [12]
00000000: e827 6a3c 3266 fb3d 0f23 863f e2fa 213f
00000010: 378a 953e 32ab d1bd c448 de3e fa02 66bf
00000020: 2709 3d3f 880a 5c3f 7cec 893e a48b 553e
0.014291741 0.122753516 1.0479449 0.6327344 0.29207012 -0.10237731 0.4341489 -0.8984829
0.7384209 0.8595357 0.26938236 0.2085405

lstm.bias_hh_l1 f4 [12]
00000000: a827 b43e 6ff0 5c3f fd11 943e b63b ad3e
00000010: 07b8 0e3f 4eee 343f 8299 043f 47bb 28bd
00000020: e9a5 80be adfa c53e 741d 143f b317 213f
0.35186505 0.8630437 0.28919974 0.33834618 0.55749553 0.70676124 0.51796734 -0.041194227
-0.2512658 0.38667813 0.5785744 0.6292679

fc.weight f4 [1, 3]
00000000: f2f6 64be 0f83 c8ba dcec c1be
-0.22359827 -0.0015297848 -0.37876022
