policy_reinforce_gcn_lstm/save/model_trial_4_h2_lr0.00083_g0.981.pth (torch, 4450 bytes, 13 tensors)

conv1.bias f4 [2]
000000 00 00 00 00 40 e1 b8 3d
       0.0 0.09027338

conv1.lin.weight f4 [2, 3]
000000 2b 76 a2 be f9 f9 51 be e5 f7 8a bf c5 c6 23 3f
       -0.3173078 -0.20505513 -1.0856901 0.63975173
000010 12 2d 88 3f 04 cf 09 bf
       1.0638754 -0.53831506

conv2.bias f4 [2]
000000 7c a4 a2 bd 48 48 a5 3d
       -0.07941529 0.08070427

conv2.lin.weight f4 [2, 2]
000000 65 e8 90 be bb 98 81 3c 0e 8e 81 be 63 32 76 3e
       -0.28302303 0.015819898 -0.25303692 0.24042659

lstm.weight_ih_l0 f4 [8, 2]
000000 90 6f a2 be 19 c5 e0 3e 7e 5e ef 3e 47 d9 88 be
       -0.3172574 0.43900374 0.4675178 -0.2672827
000010 33 40 cd 3e 17 e3 34 3f ea f6 57 3e 3d 17 a3 bb
       0.40088043 0.7065901 0.21090284 -0.0049771355
000020 ce d6 07 be 3e fb ab be 91 7e 91 be 7c de 23 3e
       -0.13265535 -0.3359012 -0.28416875 0.1600284
000030 e7 c4 00 bf 92 7b 15 3e 7b 85 b3 be 6e ef 09 be
       -0.5030045 0.1459792 -0.35062775 -0.13470241

lstm.weight_hh_l0 f4 [8, 2]
000000 b2 df ea 3e 88 a8 38 bf ec db 68 be 54 b5 07 bf
       0.4587379 -0.7213216 -0.22740144 -0.5301106
000010 44 8d 06 bf 37 ff 98 be 37 72 22 3d 29 ce c9 3c
       -0.52559304 -0.29882213 0.039659705 0.024634438
000020 48 ef 1c be e8 c7 03 3f 70 67 80 3e 88 5c 21 3f
       -0.15325654 0.5147691 0.25078917 0.63031816
000030 cd 41 9e be 25 3b 4f 3e 14 e4 f4 3e ab 70 17 3f
       -0.30909577 0.20237406 0.4783026 0.5915629

lstm.bias_ih_l0 f4 [8]
000000 01 f6 07 3e af d3 e8 3e a0 e4 ad 3e 08 0b 69 3d
       0.13277437 0.45474002 0.3396349 0.056895286
000010 22 14 db 3e e9 ec c1 be ef ab 85 be 1e bc 7c be
       0.42788798 -0.3787606 -0.26107737 -0.24681136

lstm.bias_hh_l0 f4 [8]
000000 fe 28 98 be 0f d0 d0 be aa 26 20 bf 5a 5c f1 be
       -0.29718775 -0.40783736 -0.62558997 -0.4714077
000010 80 94 29 bf 35 d6 8c be 3f e9 44 3f 4b 69 02 3f
       -0.6624222 -0.27507177 0.76918405 0.50941914

lstm.weight_ih_l1 f4 [8, 2]
000000 b0 dc e7 3e 2f f2 e2 be 71 b7 09 3f 09 68 31 3e
       0.4528556 -0.44325396 0.53795534 0.17324843
000010 b4 1d b1 bd ce cd 04 bf e4 16 38 bf f5 aa 64 3e
       -0.086482435 -0.51876533 -0.7190993 0.2233084
000020 7f a7 b5 be fc e5 86 bd 52 b7 2d bf 97 79 0d 3e
       -0.35479352 -0.06586835 -0.6785785 0.13815914
000030 2f f3 1b 3f 88 30 04 bf db 4e 3d bf d1 78 ff 3e
       0.60917944 -0.5163655 -0.7394845 0.49896863

lstm.weight_hh_l1 f4 [8, 2]
000000 44 3d 39 3f e3 7f a9 be ce f1 40 bf a3 5c c9 bd
       0.7235911 -0.33105382 -0.75368965 -0.09832122
000010 32 59 b0 3d 2a 31 06 3f 8f 4f fc 3d d9 be 78 3d
       0.08610763 0.5241877 0.12319862 0.06072888
000020 eb 4b 18 bf 63 38 32 3d 18 3d 9b be da 3d 33 3f
       -0.5949084 0.043510806 -0.30320048 0.70016253
000030 15 53 dc 3d 97 61 36 bf 4e 49 d4 3e 8d db 33 3f
       0.10758034 -0.7124266 0.41462177 0.7025688

lstm.bias_ih_l1 f4 [8]
000000 85 eb 5b be 38 8c 13 3f 7a 6d 07 3e c7 3c b3 be
       -0.21476562 0.5763583 0.13225356 -0.35007307
000010 27 70 08 bf a3 61 34 3f 89 32 ef 3e b6 92 dc 3d
       -0.5329613 0.7046148 0.46718243 0.107701704

lstm.bias_hh_l1 f4 [8]
000000 c0 91 e4 3e b4 f2 98 be 12 30 d5 3e df 34 3e 3f
       0.44642448 -0.29872668 0.41638237 0.74299425
000010 f5 bb 1f 3e 0a 3e 07 be db 22 07 bf 06 27 28 be
       0.15599044 -0.1320726 -0.5278756 -0.16421136

fc.weight f4 [1, 2]
000000 dc 01 d0 3e ed 54 de bd
       0.4062642 -0.10856042
