policy_reinforce_gcn_lstm/save/model_trial_101_h1_lr0.00453_g0.918.pth (torch, 4216 bytes, 9 tensors)

conv1.lin.weight f4 [1, 4]
000000 8f fc d2 bf 0d 68 c1 bf b8 76 2a bf 80 3f 3f bf
       -1.6483325 -1.5109879 -0.665874 -0.7470627

lstm.weight_ih_l0 f4 [4, 1]
000000 30 04 c5 be bc f8 64 3f c2 ee 2f bf a3 0f 90 3d
       -0.38479757 0.8944204 -0.6872369 0.070342325

lstm.weight_hh_l0 f4 [4, 1]
000000 80 83 45 3e 8e 4a 41 3f a0 8a 6e be 6c e8 97 be
       0.19288445 0.75504386 -0.23295069 -0.2966951

lstm.bias_ih_l0 f4 [4]
000000 d0 20 4b 3e 68 98 13 bf 80 f3 7e 3d ca a8 7a bf
       0.19836736 -0.5765443 0.06224394 -0.979138

lstm.bias_hh_l0 f4 [4]
000000 d0 ad 65 3f 64 aa 88 be a0 a8 1e be 26 0e 39 be
       0.8971834 -0.26692498 -0.15494013 -0.18071803

lstm.weight_ih_l1 f4 [4, 1]
000000 d2 26 0a bf 2c a8 8e 3e 36 83 2b 3d aa 38 5f 3f
       -0.53965485 0.2786268 0.04187318 0.8719584

lstm.weight_hh_l1 f4 [4, 1]
000000 1e 7d 9d 3f 97 2a 2c 3f 34 2f 5d 3f f1 2e d2 3f
       1.2303808 0.67252487 0.8640015 1.6420575

lstm.bias_ih_l1 f4 [4]
000000 80 c8 7d 3d d7 7e 33 3c 39 63 15 3f 42 34 84 3e
       0.06195879 0.010955534 0.58354527 0.2582112

lstm.bias_hh_l1 f4 [4]
000000 f3 d3 af be 07 a0 4c 3e 46 ba 8a 3f 22 e8 88 3f
       -0.34341392 0.1998292 1.0838096 1.0695841
