policy_reinforce_gcn_lstm/save/model_trial_2_h3_lr0.00572_g0.917.pth (torch, 5586 bytes, 11 tensors)

conv1.bias f4 [3]
0	0x3d8fa879	0.070145555
1	0x3d3691a6	0.044572495
2	0xbd95ed9d	-0.07320712

conv1.lin.weight f4 [3, 3]
0	0x3f7cf0c5	0.98804885
1	0xbe794af5	-0.24345
2	0xbf006f6d	-0.5017002
3	0xbfaffeed	-1.3749672
4	0xbf92addf	-1.1459311
5	0xbf2f5c00	-0.68499756
6	0xbfbb7e64	-1.4647946
7	0xbf624543	-0.88386935
8	0xbeaa0274	-0.33204997

lstm.weight_ih_l0 f4 [12, 3]
0	0x3e212e0b	0.1574022
1	0x3e3a7592	0.18208912
2	0xbd28aa20	-0.04117787
3	0xbe98ea1a	-0.29866105
4	0xbebe631c	-0.3718499
5	0xbd06974a	-0.032859124
6	0x3f032848	0.5123334
7	0xbec3b933	-0.38227233
8	0xbeb25545	-0.3483068
9	0xbecd8ccb	-0.4014648
10	0xbf048be3	-0.5177595
11	0xbe8dbb3a	-0.27681905
12	0x3ebaf88c	0.3651775
13	0x3ee6d788	0.45086312
14	0xbf1d7c1d	-0.61517507
15	0xbec864ed	-0.391395
16	0x3f0258de	0.5091685
17	0x3d8331d4	0.06405988
18	0xbd7a4cdc	-0.061108455
19	0x3e6db80e	0.23214743
20	0x3debe176	0.11517613
21	0xbdc935d2	-0.098247185
22	0x3eb4c894	0.3530928
23	0x3d45d44c	0.048298165
24	0x3df2149e	0.11820339
25	0x3e4981f3	0.19678478
26	0xbea86339	-0.328882
27	0xbe604959	-0.2190298
28	0x3e5bcf63	0.2146583
29	0x3eaa7fa0	0.33300495
30	0xbf0279d9	-0.50967175
31	0xbedd5beb	-0.4323419
32	0xbd10f324	-0.035388127
33	0xbf0421a8	-0.51613855
34	0x3e9ac77c	0.3023032
35	0xbddcdb5d	-0.10784028

lstm.weight_hh_l0 f4 [12, 3]
0	0x3da426d6	0.0801522
1	0x3da2387b	0.07920929
2	0xbe4778aa	-0.19479623
3	0xbe57e533	-0.21083526
4	0x3eb9f525	0.36319843
5	0x3e80c2a6	0.25148505
6	0x3dac42ea	0.084112
7	0x3eb33fba	0.35009557
8	0x3e9c762c	0.30558908
9	0xbed51c31	-0.4162307
10	0x3dd3b8d0	0.103379846
11	0xbe3f631e	-0.18690154
12	0x3cf7a2a5	0.030228922
13	0xbf17a6f1	-0.5923911
14	0xbedfb407	-0.43692037
15	0x3e29b069	0.16571201
16	0xbde8889c	-0.11354181
17	0x3c9236cf	0.0178484
18	0xbed3d5ca	-0.41374046
19	0x3e93c605	0.28862014
20	0xbe32a9e7	-0.17447625
21	0x3ec1c4ac	0.3784536
22	0x3f09da13	0.5384838
23	0xbdc7bf71	-0.097533114
24	0xbdd3c783	-0.10340788
25	0x3e763e44	0.2404719
26	0xbecab068	-0.39587712
27	0xbd7c2378	-0.061557263
28	0x3eddf7ec	0.43353212
29	0x3ecd99d7	0.40156433
30	0xbed56982	-0.4168206
31	0xbefdb167	-0.4954941
32	0xbe32b0d3	-0.17450266
33	0xbdbe7553	-0.092997216
34	0xbf02ebeb	-0.5114123
35	0xbb9d227c	-0.0047953706

lstm.bias_ih_l0 f4 [12]
0	0xbe48a4d4	-0.19594127
1	0xbec1967e	-0.3781013
2	0xbd7fdd9d	-0.062467206
3	0x3e5ea965	0.21744306
4	0xbea7511b	-0.32679066
5	0x3e31b526	0.17354259
6	0x3e716a0b	0.23575608
7	0x3e0afd69	0.13573231
8	0xbe3d4520	-0.184834
9	0xbe5010db	-0.2031893
10	0xbecee8dc	-0.40412033
11	0x3e341965	0.17587812

lstm.bias_hh_l0 f4 [12]
0	0x3e87f64f	0.26555106
1	0x3e25520b	0.16144578
2	0x3e9959b3	0.29951248
3	0xbe988c65	-0.29794613
4	0xbea82d1c	-0.32846916
5	0x3d9b229d	0.07574961
6	0x3e845219	0.25843886
7	0xbe0b4a6f	-0.13602613
8	0x3e8b3843	0.27191362
9	0xbde01020	-0.109405756
10	0xbea70b43	-0.3262578
11	0x3e8ebe7c	0.27879703

lstm.weight_ih_l1 f4 [12, 3]
0	0x3ddfa824	0.10920742
1	0x3e3f0cd9	0.18657245
2	0x3e727192	0.23676136
3	0xbddd5ae4	-0.10808352
4	0xbf3a90af	-0.7287702
5	0x3e6875c1	0.2270117
6	0x3e2438c3	0.16037278
7	0xbf444c17	-0.76678604
8	0x3e609496	0.21931681
9	0xbdae314f	-0.085054986
10	0x3dfa121e	0.12210487
11	0xbee5c0d4	-0.4487368
12	0x3ec08e4d	0.37608567
13	0xbf182f24	-0.5944693
14	0xbed98702	-0.42485815
15	0x3c7a827b	0.015289898
16	0xbd881040	-0.066437244
17	0x3e8bd283	0.27309045
18	0xbea35e67	-0.3190796
19	0xbf4e6c0e	-0.8063363
20	0x3e6917b7	0.22762953
21	0xbd90da27	-0.07072859
22	0x3f054f40	0.5207405
23	0xbe849a82	-0.2589913
24	0xbdc8f723	-0.098127626
25	0x3d8bfbc7	0.06835132
26	0xbeafcf3e	-0.343378
27	0x3e8b03f5	0.27151456
28	0xbf0171dd	-0.50564367
29	0xbe928d0e	-0.2862324
30	0x3ee262da	0.44216043
31	0x3d731584	0.05934669
32	0x3ef59d8e	0.47971767
33	0xbe933303	-0.28749856
34	0xbe934965	-0.28766933
35	0xbdb22e65	-0.08700255

lstm.weight_hh_l1 f4 [12, 3]
0	0x3f1ca736	0.61192644
1	0xbe20a3d3	-0.15687494
2	0xbea7c831	-0.3276992
3	0x3d9e1fdf	0.07720923
4	0xbe33a6eb	-0.17544143
5	0xbf575b12	-0.8412334
6	0xbe28bcf7	-0.16478334
7	0xbf4d678f	-0.8023614
8	0xbf5c469d	-0.8604525
9	0x3ecb442a	0.39700443
10	0xbe879072	-0.2647739
11	0xbe3e6888	-0.18594563
12	0x3e9f3ce2	0.31101137
13	0xbf02f083	-0.5114824
14	0xbf3d4b74	-0.7394326
15	0x3f56165d	0.83627874
16	0xbf20bb9c	-0.6278627
17	0x3cae8c78	0.021307215
18	0xbeaf006f	-0.34180018
19	0xbf305fe2	-0.68896306
20	0xbf30bc2a	-0.69037116
21	0xbedacb15	-0.42733064
22	0x3f1d749a	0.61506045
23	0x3eeecf18	0.46642375
24	0xbe2acbbb	-0.1667928
25	0x3f2640a5	0.6494239
26	0x3f3574db	0.7088143
27	0x3f5a379a	0.8524109
28	0xbe3703f7	-0.17872606
29	0xbf2525c6	-0.6451076
30	0x3f78922d	0.97098047
31	0xbf067c1a	-0.52533114
32	0xbeb21ef6	-0.34789246
33	0x3e078089	0.13232626
34	0xbe6e6641	-0.23281194
35	0xbf0152f2	-0.5051719

lstm.bias_ih_l1 f4 [12]
0	0xbd7c34b1	-0.061573688
1	0x3ed330ab	0.41248068
2	0x3f121eb9	0.5707813
3	0xbc611ad8	-0.01373931
4	0x3ed8c234	0.42335665
5	0x3e030b31	0.12797238
6	0x3e3c081b	0.18362467
7	0xbedac8f1	-0.4273143
8	0xbf1e47c1	-0.6182824
9	0x3f537de4	0.8261397
10	0x3f7a4c01	0.9777222
11	0x3f5ed98b	0.87050694

lstm.bias_hh_l1 f4 [12]
0	0x3f32806b	0.697272
1	0x3f22e892	0.63636124
2	0x3e52fc7c	0.20604128
3	0x3e7b6b32	0.2455261
4	0xbe05ae0a	-0.13054672
5	0x3ea54bc7	0.32284376
6	0x3f327596	0.6971067
7	0x3d794a8e	0.060862117
8	0xbe940f64	-0.28917992
9	0x3d481bba	0.048854567
10	0x3ee9d099	0.4566696
11	0x3cb73391	0.022363456

fc.weight f4 [1, 3]
0	0x3ef4e988	0.4783442
1	0x3e90a2ef	0.28249308
2	0x3ef86cd6	0.48520535
