policy_reinforce_gcn_lstm/save/model_trial_85_h3_lr0.00487_g0.958.pth (torch, 4909 bytes, 13 tensors)

conv1.bias f4 [3]
000000 8f 26 eb bc ec d5 43 3d 79 fd a3 3d
       -0.02870491 0.047811434 0.080073304

conv1.lin.weight f4 [3, 4]
000000 fd 9f 30 bf 87 af 1e bf 67 ec 5c 3d ea a1 33 3d
       -0.6899412 -0.61986583 0.05393639 0.043855585
000010 a8 b3 81 bf 26 ff 68 bf 37 08 34 3e 9e da b9 3e
       -1.0132952 -0.91014326 0.17581259 0.36299604
000020 ea 74 77 3f 32 77 a0 3f a9 93 50 3f cd a5 c4 3e
       0.9666277 1.2536376 0.8147531 0.38407746

conv2.bias f4 [3]
000000 00 00 00 00 00 00 00 00 00 00 00 00
       0.0 0.0 0.0

conv2.lin.weight f4 [3, 3]
000000 ec 10 4b bf 62 5a 33 bf c0 49 2f 3f 28 61 6a be
       -0.79322696 -0.7005979 0.6847191 -0.22888625
000010 94 cb 84 be d8 95 5f be 6a e8 37 3f 14 4f 77 bf
       -0.25936568 -0.21834505 0.7183901 -0.9660504
000020 82 77 71 3f
       0.9432298

lstm.weight_ih_l0 f4 [12, 3]
000000 c4 5d 4a be a6 5a e0 be 7e fe 02 3f 58 61 80 be
       -0.19762331 -0.4381916 0.51169574 -0.25074267
000010 f4 95 df 3e 4a 6f 49 3e fc 31 a4 be 6b 86 db 3e
       0.43669093 0.1967136 -0.32069385 0.4287599
000020 54 fe b2 3e 25 df cd be 2e 8a b8 3e d9 f5 0a bf
       0.34959662 -0.40209308 0.36042923 -0.54281384
000030 58 e9 47 be 29 45 05 3f c4 90 72 3e 6b f2 ff 3e
       -0.19522607 0.52058655 0.23688036 0.49989638
000040 a2 0f 0f 3f 0a ea e8 be d3 8b 10 bf af 34 01 bc
       0.5588323 -0.45491058 -0.56463355 -0.007886096
000050 16 cb f7 be 71 c5 12 3f 80 1c a7 be 01 44 8f 3e
       -0.4839713 0.5733252 -0.3263893 0.2798157
000060 f1 0b e7 3e 20 cf 1c be 71 cb 19 be b6 e7 80 be
       0.45126298 -0.15313387 -0.15019013 -0.2517678
000070 5b b7 4b 3e 74 c5 2a bd 2c 83 16 3f 4d 5f 52 be
       0.19894163 -0.041692212 0.587939 -0.20544167
000080 df 28 d8 be d6 81 07 bf 5e b4 fd 3d db 47 d9 3e
       -0.42218682 -0.5293249 0.12387918 0.42437634

lstm.weight_hh_l0 f4 [12, 3]
000000 76 1c 22 be 4d 6e c0 bd 63 89 f9 3d e7 28 06 bf
       -0.1583117 -0.09396038 0.121844076 -0.5240616
000010 80 30 73 be 31 31 d2 3d cf a4 ce 3e ca f8 fc be
       -0.2374897 0.10263289 0.40360114 -0.4940856
000020 7e 66 22 bd 3d 95 0c 3e 8d e3 a6 3e e5 86 0f 3f
       -0.039648525 0.13728805 0.32595482 0.5606521
000030 26 bc e9 be c0 81 97 3e 30 ef 9a be 43 1f 5b 3e
       -0.45651358 0.2959118 -0.3026061 0.21398644
000040 ee 62 d0 be 1c a9 19 3e ad 65 98 be 23 a4 e2 3e
       -0.40700477 0.15005916 -0.29765072 0.4426585
000050 87 2d e2 be 31 0f e1 3e 10 84 27 bd 07 ea 02 be
       -0.4417536 0.43956903 -0.04089743 -0.12784587
000060 81 72 01 3f e2 9f ee 3e 6c 5e be be 24 0d 4b be
       0.50565344 0.46606356 -0.37181413 -0.19829232
000070 b7 d4 3f be f7 b7 22 bc 5b 55 8c be d0 89 8b 3e
       -0.18733488 -0.009931556 -0.2740887 0.2725358
000080 b5 91 a8 bd 92 00 a5 be f6 9b 03 3e fb 58 dd 3e
       -0.082309164 -0.32226998 0.12852463 0.4323195

lstm.bias_ih_l0 f4 [12]
000000 58 25 bb 3e f4 1f ae 3e cb 7c db 3e e0 b2 e9 3e
       0.3655193 0.34008753 0.42868647 0.45644283
000010 48 f7 88 3a 4f b2 fb bd 3f c9 83 3e b4 b7 96 3e
       0.0010449672 -0.12289869 0.25739476 0.2943703
000020 be d4 6d be 9c a4 cb bd 6c 14 04 3f 31 a1 c1 3e
       -0.23225686 -0.09943506 0.5159366 0.37818292

lstm.bias_hh_l0 f4 [12]
000000 43 cb fa 3d ac 99 cd be cd 70 2b 3f ab 24 0e 3f
       0.122458 -0.40156305 0.66968995 0.555247
000010 9d 96 be be da c4 f4 be 04 43 70 be d8 79 6c 3e
       -0.37224284 -0.47806436 -0.23463064 0.23093355
000020 8f 4d b6 be f0 bf 55 3d b0 a6 02 bf bf e2 26 3e
       -0.35606048 0.052185 -0.51035595 0.16297434

lstm.weight_ih_l1 f4 [12, 3]
000000 f0 97 aa be 8c ff 80 3e c8 e8 3d be 5d 2e 49 be
       -0.33319044 0.25194967 -0.1854583 -0.19646592
000010 b3 d9 fa be f1 3a 79 bf 19 fe fa 3e f3 19 ea be
       -0.48994216 -0.9735556 0.49021986 -0.45722923
000020 40 7d 39 bf 0b 6f 1e bf 71 09 96 be 3d 3d 23 be
       -0.7245674 -0.6188819 -0.29304078 -0.1594133
000030 ce 3f d9 3e 04 8d cf 3e 85 ba 89 be 7c 37 88 be
       0.42431492 0.40537274 -0.26900116 -0.2660483
000040 03 8a e4 3e 85 e9 3f bf 56 5d 5e bd cf 77 8a be
       0.44636545 -0.749657 -0.05428823 -0.27044532
000050 e2 f3 28 3f 93 54 04 bf a1 49 03 bf 26 95 69 3d
       0.65997136 -0.5169155 -0.51284224 0.057027005
000060 d8 bb eb be 82 1f 03 bf 2e 74 72 bf 81 de 97 be
       -0.4604175 -0.5121995 -0.94708526 -0.29661945
000070 d1 dd 9f 3e b0 61 86 bf 13 4f ce 3e c5 97 13 3f
       0.3122392 -1.0498562 0.40294704 0.57653457
000080 8a f3 c9 be b4 22 e7 be 3c d5 ea bc 26 85 e9 be
       -0.39443618 -0.45143664 -0.028666131 -0.45609397

lstm.weight_hh_l1 f4 [12, 3]
000000 a0 4e c3 be a3 c0 2d bf c2 10 81 3e 74 34 d2 bd
       -0.38145924 -0.67872065 0.25208098 -0.10263911
000010 74 b7 c0 be 63 93 7d be 61 52 de be f0 e5 2c 3e
       -0.37639964 -0.24763255 -0.43422225 0.16884589
000020 75 85 4b 3e a4 37 a8 3d 40 98 c1 3d 02 4c 1c 3f
       0.19875129 0.082137376 0.094528675 0.6105348
000030 6d d1 b9 bd ab dc 39 bf bb e2 25 3f 4d bf 4c bf
       -0.09073148 -0.7260234 0.6479909 -0.799794
000040 46 58 37 bf fa e3 36 be a8 bf 31 3f 37 1c 51 be
       -0.7161907 -0.17860404 0.6943307 -0.2042092
000050 9a 2e 2e bf 55 bd a1 bd 15 4a fe 3e 68 b8 74 3e
       -0.6803986 -0.0789744 0.49665895 0.2389847
000060 d9 ab bc be fc 63 10 bf 1f 33 7e 3e b6 57 d2 be
       -0.3684986 -0.56402564 0.24824189 -0.41082543
000070 df 0c 57 bf bc c8 36 3e c9 f9 4f bf d5 db 30 bf
       -0.84004015 0.17850012 -0.81240517 -0.6908544
000080 c5 02 2e 3e 7f 84 74 be 35 3d 02 bf 25 a3 3d 3f
       0.16993244 -0.23878668 -0.50874645 0.74077064

lstm.bias_ih_l1 f4 [12]
000000 8d ee da 3e e6 94 37 3f d2 19 9c 3e b2 eb 23 3f
       0.42760125 0.71711576 0.3048845 0.6403152
000010 a8 10 39 3f be 99 c1 3e 40 0e 2f bf 70 c3 e9 be
       0.7229104 0.37812608 -0.6838112 -0.4565692
000020 50 84 2d 3f bf 21 d7 3e 34 ea 27 3f c4 5d 74 3f
       0.6778002 0.42017934 0.6559174 0.95455575

lstm.bias_hh_l1 f4 [12]
000000 cf 41 c5 3d 97 1e 0e be 75 9e 5d bd 39 5d 2e 3f
       0.096316926 -0.13878857 -0.054106195 0.68110996
000010 3f 2f 50 3e bc 66 95 3b 04 a0 29 bf 91 b5 50 bf
       0.20330523 0.004559366 -0.6625979 -0.8152705
000020 44 27 1b 3e d7 b5 1a 3e 49 a8 41 3c a6 53 86 bd
       0.15151697 0.15108429 0.011819907 -0.065589234

fc.weight f4 [1, 3]
000000 b3 6a 5f 3d 2b 3a 80 be e7 36 30 bd
       0.054545116 -0.2504438 -0.04302111
