policy_reinforce_gcn_lstm/save/model_trial_35_h4_lr0.00524_g0.939.pth (torch, 4735 bytes, 11 tensors)

conv1.bias f4 [4]
0.018704584 0.09488467 0.17943762 -0.06551733
00000000: 5b3a 993c e552 c23d 7fbe 373e f32d 86bd

conv1.lin.weight f4 [4, 3]
-0.33624718 0.32954872 0.5016238 -0.9832337 0.9613124 -0.6368198 0.5613369 -0.23333734
-0.19611548 0.14482376 -1.3719882 1.2026404
00000000: 9728 acbe 9cba a83e 6b6a 003f 34b5 7bbf
00000010: 9218 763f 9f06 23bf c6b3 0f3f fcef 6ebe
00000020: 7fd2 48be ae4c 143e 4f9d afbf 1ff0 993f

lstm.weight_ih_l0 f4 [16, 4]
-0.43932965 0.0026579036 0.39858955 -0.26426232 0.13516456 0.35730848 0.042800475 -0.516459
-0.09246711 -0.25341755 0.011715378 0.26176572 -0.44579354 0.33279794 -0.029590374 0.10908168
-0.27228865 -0.2462523 0.66006714 0.2506915 0.06770179 0.35993668 0.44587365 -0.33108914
-0.05517644 0.45178327 0.07233012 0.44578838 0.0839688 -0.25457546 0.085968524 -0.10491207
0.08415938 0.23028043 -0.055721484 0.2621631 0.42533734 -0.09215872 -0.42069668 0.1845855
0.1681608 0.36083478 0.16518342 0.38988924 0.3984696 -0.042276457 0.044654846 -0.24687663
-0.14779846 0.3404444 0.30091602 -0.386859 0.21887362 -0.33366165 0.18999657 -0.3564542
0.21816133 0.4349711 0.1984498 0.13268772 -0.4484839 -0.13865209 -0.4424577 0.46080104
00000000: d1ef e0be 3930 2e3b ee13 cc3e 644d 87be
00000010: 9468 0a3e 23f1 b63e 8d4f 2f3d a836 04bf
00000020: 655f bdbd f2bf 81be dbf1 3f3c 2806 863e
00000030: 0d3f e4be 7e64 aa3e 8367 f2bc 3766 df3d
00000040: 6b69 8bbe 9029 7cbe 29fa 283f a35a 803e
00000050: 3ca7 8a3d 9f49 b83e 8d49 e43e 8484 a9be
00000060: b100 62bd 2350 e73e d021 943d 603e e43e
00000070: d6f7 ab3d b757 82be 4410 b03d 24dc d6bd
00000080: c15b ac3d a2ce 6b3e 363c 64bd 3e3a 863e
00000090: d1c5 d93e b6bd bcbd 8e65 d7be fb03 3d3e
000000a0: 5832 2c3e 56bf b83e d825 293e 909f c73e
000000b0: 3504 cc3e 142a 2dbd 00e8 363d 3acd 7cbe
000000c0: 7b58 17be ba4e ae3e aa11 9a3e 6212 c6be
000000d0: 6820 603e b3d5 aabe 768e 423e 2a81 b6be
000000e0: af65 5f3e 88b4 de3e 6d36 4b3e 4adf 073e
000000f0: af9f e5be d0fa 0dbe d189 e2be 1dee eb3e

lstm.weight_hh_l0 f4 [16, 4]
-0.049815495 -0.35967016 0.18494396 0.02121165 0.2946235 0.16095915 -0.20820095 -0.30534324
0.17843048 -0.4241886 -0.28226107 0.21100089 -0.4986307 0.031138277 -0.17099199 0.096949995
-0.62833923 -0.3583624 -0.56614506 0.3124498 0.06068003 -0.18125345 -0.372066 -0.1483208
-0.19348352 -0.37491947 -0.11172203 0.41563177 -0.12061981 0.24447909 0.32899186 0.14051692
-0.3556388 -0.41052625 -0.11118234 0.02953007 -0.3299065 0.5550155 0.07560128 0.38728678
0.2935775 0.3177578 -0.40915424 -0.18898684 -0.27248418 0.25572762 -0.49234876 -0.07492356
0.38605207 -0.2743412 -0.38027844 -0.20020507 0.04410882 -0.28305316 0.052012555 0.15762699
-0.39384192 0.20232321 -0.3527897 0.185694 0.16311817 -0.07652413 -0.04037074 -0.22815968
00000000: 550b 4cbd b026 b8be f361 3d3e 0ec4 ad3c
00000010: e4d8 963e 7ad2 243e a132 55be f355 9cbe
00000020: 7bb6 363e 402f d9be 8684 90be 9e10 583e
00000030: 864c ffbe b315 ff3c 8618 2fbe b88d c63d
00000040: d7da 20bf 477b b7be e2ee 10bf 6cf9 9f3e
00000050: a08b 783d 819a 39be 6f7f bebe 68e1 17be
00000060: 8b20 46be 72f5 bfbe 85ce e4bd b0cd d43e
00000070: 8507 f7bd ba58 7a3e 9f71 a83e abe3 0f3e
00000080: 4a16 b6be 7f30 d2be 91b3 e3bd 0ce9 f13c
00000090: 81e9 a8be 7f15 0e3f d8d4 9a3d 744a c63e
000000a0: ca4f 963e 26b1 a23e aa7c d1be c485 41be
000000b0: 0c83 8bbe bbee 823e 2315 fcbe 8671 99bd
000000c0: 9ea8 c53e 7376 8cbe dbb3 c2be 8f02 4dbe
000000d0: 73ab 343d 58ec 90be 1e0b 553d f868 213e
000000e0: a6a5 c9be d12d 4f3e daa0 b4be 9126 3e3e
000000f0: 7308 273e afb8 9cbd ca5b 25bd b1a2 69be

lstm.bias_ih_l0 f4 [16]
0.601595 0.24385542 -0.30035126 0.36941028 0.33002236 -0.1313554 0.17758852 0.389292
-0.21482629 0.16179816 -0.40918177 0.32427797 0.24637632 -0.0953182 0.43591955 -0.333829
00000000: 2102 1a3f 3cb5 793e a4c7 99be 5823 bd3e
00000010: b1f8 a83e 0882 06be c4d9 353e 4851 c73e
00000020: 6cfb 5bbe 6bae 253e 4680 d1be c307 a63e
00000030: 134a 7c3e 3036 c3bd d930 df3e a2eb aabe

lstm.bias_hh_l0 f4 [16]
-0.2175735 0.60917556 -0.0075892988 -0.020124275 0.5537309 0.17555745 -0.2926766 -0.20406933
-0.3583874 0.24134174 0.27042842 0.24646342 0.4237932 -0.12910302 0.09893438 -0.08003629
00000000: 96cb 5ebe eef2 1b3f a7af f8bb aadb a4bc
00000010: 4fc1 0d3f 55c5 333e b5d9 95be 8df7 50be
00000020: 8e7e b7be 4a22 773e 9875 8a3e e860 7c3e
00000030: 6cfb d83e 9533 04be 1c9e ca3d 11ea a3bd

lstm.weight_ih_l1 f4 [16, 4]
-0.5627432 -0.16513531 -0.23939802 0.3785266 -0.44924858 0.013904072 0.20355861 0.3444493
-0.44559416 -0.13705924 0.16661377 0.42850944 -0.6291373 -0.27507493 -0.007818144 0.21262732
0.09044671 -0.2114405 0.28195983 0.020907253 0.19502294 -0.61500573 0.19623825 0.09497263
-0.11697954 0.087040946 0.075001135 -0.18347736 -0.3410593 -0.46401778 -0.52348936 0.457092
-0.61654615 -0.18783791 -0.2637361 -0.18823378 -0.7103961 -0.62447304 -0.23146023 -0.18673131
0.52459246 -0.04369262 0.12604496 -0.53305835 -0.1223442 0.3560134 -0.24134238 0.43249443
-0.45786425 -0.113556966 -0.5027184 0.3995948 -0.8240001 -0.24387623 -0.05461723 -0.16484852
-0.19117156 0.060259234 -0.38029245 0.41667366 -0.51131046 -0.69169915 -0.14197592 0.48774463
00000000: f00f 10bf 3b19 29be c124 75be 3dce c13e
00000010: e903 e6be e8cd 633c ab71 503e a95b b03e
00000020: eb24 e4be 4259 0cbe cd9c 2a3e 9765 db3e
00000030: 240f 21bf 9fd6 8cbe ac17 00bc faba 593e
00000040: 203c b93d dc83 58be 0a5d 903e b045 ab3c
00000050: 18b4 473e 0471 1dbf aef2 483e 0381 c23d
00000060: f892 efbd 8642 b23d 329a 993d 7de1 3bbe
00000070: 539f aebe bd93 edbe 6603 06bf f607 ea3e
00000080: f8d5 1dbf 9558 40be 6b08 87be 5bc0 40be
00000090: 85dc 35bf 77dd 1fbf e903 6dbe 7e36 3fbe
000000a0: b14b 063f 08f7 32bd ee11 013e 8376 08bf
000000b0: 998f fabd 6347 b63e 7522 77be e96f dd3e
000000c0: 2f6d eabe 8e90 e8bd 27b2 00bf b197 cc3e
000000d0: acf1 52bf b1ba 79be 51b6 5fbd 0dce 28be
000000e0: 7ac2 43be 63d2 763d b1b5 c2be 4056 d53e
000000f0: 3ee5 02bf 3213 31bf 2362 11be aab9 f93e

lstm.weight_hh_l1 f4 [16, 4]
0.39253995 0.13973877 -0.04941664 0.14477089 0.32459122 0.053497374 -0.7429494 -0.34591603
-0.22383809 0.013928248 -0.21376191 -0.6340314 0.55726624 0.26079592 -0.2779642 -0.14368704
0.10757865 -0.04242935 -0.2810392 -0.42899477 0.48218346 0.056211375 -0.6158146 -0.588689
0.5099066 0.20270477 0.268199 -0.29887238 0.44398886 0.023051662 0.15976179 -0.07059884
0.6327573 -0.21741386 -0.12467816 -0.1886772 0.24261707 -0.1790108 -0.51235795 -0.5224414
-0.566508 -0.1229847 0.4130186 0.031390045 -0.044466387 -0.07704427 0.50905454 0.7193544
-0.056664765 0.62299484 0.1348364 -0.80612236 0.33000225 0.3700299 -0.72132075 -0.6223703
-0.009678689 -0.18396366 -0.7051749 -0.6943511 0.40200737 0.7540989 -0.31718966 -0.781285
00000000: fffa c83e ae17 0f3e 1a69 4abd d23e 143e
00000010: d230 a63e 1020 5b3d ef31 3ebf e81b b1be
00000020: d035 65be 4e33 643c 67e4 5abe e24f 22bf
00000030: 00a9 0e3f 0b87 853e 5351 8ebe b222 13be
00000040: 3252 dc3d 66ca 2dbd 5fe4 8fbe 34a5 dbbe
00000050: c0e0 f63e e63d 663d 07a6 1dbf 53b4 16bf
00000060: 3d89 023f d791 4f3e 6151 893e cd05 99be
00000070: 8252 e33e d7d6 bc3c 9898 233e 2096 90bd
00000080: 62fc 213f bda1 5ebe 4357 ffbd 9934 41be
00000090: 9c70 783e 9b4e 37be e429 03bf b8be 05bf
000000a0: ab06 11bf 67df fbbd 2d77 d33e d992 003d
000000b0: 6322 36bd 63c9 9dbd 6651 023f 9c27 383f
000000c0: 5019 68bd 977c 1f3f 8e12 0a3e 095e 4ebf
000000d0: 0ef6 a83e 8f74 bd3e 7aa8 38bf a953 1fbf
000000e0: 5d93 1ebc f860 3cbe 5886 34bf fec0 31bf
000000f0: e9d3 cd3e a00c 413f af66 a2be 4b02 48bf

lstm.bias_ih_l1 f4 [16]
0.38290945 0.033024754 -0.26883546 0.20859164 0.02041471 0.12490049 0.6341278 0.44549096
0.4737953 0.3022339 -0.43485737 -0.44869074 0.25493684 -0.0680677 0.17060658 0.34358367
00000000: b50c c43e f744 073d cda4 89be 0c99 553e
00000010: c03c a73c d4cb ff3d 3356 223f 6417 e43e
00000020: 4c95 f23e 67be 9a3e a0a5 debe cbba e5be
00000030: 1587 823e 1467 8bbd 7eb3 2e3e 33ea af3e

lstm.bias_hh_l1 f4 [16]
0.22803153 0.58267236 0.08252717 0.36301145 -0.053124446 0.72804415 0.40813503 -0.0067281034
0.12414409 -0.020007538 -0.37818852 -0.76363254 0.5531579 0.521054 -0.25939855 0.19740774
00000000: 1981 693e 042a 153f 0104 a93d a3dc b93e
00000010: 0599 59bd 1a61 3a3f 13f7 d03e 6c77 dcbb
00000020: 423f fe3d d9e6 a3bc eda1 c1be 6c7d 43bf
00000030: c29b 0d3f cc63 053f e3cf 84be 4125 4a3e

fc.weight f4 [1, 4]
-0.34520257 0.46715802 0.13760477 -0.23629332
00000000: 64be b0be 562f ef3e 44e8 0c3e e0f6 71be
