policy_reinforce_gcn_lstm/save/model_trial_39_h1_lr0.00407_g0.948.pth (torch, 4205 bytes, 9 tensors)

conv1.lin.weight f4 [1, 4]
1.206861 1.2890818 1.7230057 -0.77025306
00000000: 6c7a 9a3f a200 a53f 738b dc3f 4e2f 45bf

lstm.weight_ih_l0 f4 [4, 1]
0.45097002 0.3418538 -0.91213024 0.8993687
00000000: 8be5 e63e 7607 af3e 5e81 69bf 073d 663f

lstm.weight_hh_l0 f4 [4, 1]
-0.024649285 -0.84853476 -0.825999 0.47599792
00000000: 4ced c9bc 9339 59bf ac74 53bf 00b6 f33e

lstm.bias_ih_l0 f4 [4]
1.0465066 0.681109 -0.7012743 0.1382698
00000000: eef3 853f 295d 2e3f b686 33bf 9996 0d3e

lstm.bias_hh_l0 f4 [4]
-0.020664075 0.7964087 0.561205 0.38774082
00000000: b547 a9bc 71e1 4b3f 22ab 0f3f f785 c63e

lstm.weight_ih_l1 f4 [4, 1]
0.13581061 -1.2107074 -1.4933635 -0.23552504
00000000: f011 0b3e 76f8 9abf 8926 bfbf 7a2d 71be

lstm.weight_hh_l1 f4 [4, 1]
1.5007958 0.609997 0.9777021 1.2405511
00000000: 141a c03f c328 1c3f af4a 7a3f 61ca 9e3f

lstm.bias_ih_l1 f4 [4]
0.87115467 -0.17763795 0.35602003 0.43802518
00000000: fe03 5f3f b9e6 35be 4248 b63e d644 e03e

lstm.bias_hh_l1 f4 [4]
0.028298574 1.0455846 0.5829839 1.1004173
00000000: 69d2 e73c b7d5 853f 6f3e 153f 79da 8c3f
