policy_reinforce_gcn_lstm/save/model_trial_23_h3_lr0.00274_g0.945.pth (torch, 4159 bytes, 11 tensors)

conv1.bias f4 [3]
0.05335112 -0.029008305 -0.048193272
00000000: b486 5a3d d3a2 edbc 4f66 45bd

conv1.lin.weight f4 [3, 3]
-0.4560909 1.2062162 -0.6539536 1.0056547 -0.15089475 -0.117067486 1.2219502 0.060060266
0.37476102
00000000: bf84 e9be 4b65 9a3f 8169 27bf 4bb9 803f
00000010: 2784 1abe 14c1 efbd dd68 9c3f c101 763d
00000020: ade0 bf3e

lstm.weight_ih_l0 f4 [12, 3]
-0.5879981 0.23519658 0.18359996 0.021645105 -0.37905088 -0.11303558 0.41584378 -0.21710788
-0.14771162 0.24669664 -0.5807247 -0.10466925 -0.6312777 0.05413261 0.09802642 0.52197635
-0.32999086 -0.36007988 0.31519595 0.56458783 -0.01655811 -0.43100154 -0.40762964 -0.3372382
0.010781966 0.14813344 -0.02090507 0.3558012 0.28032908 0.42899722 -0.5824317 -0.0510669
-0.05234094 0.08545965 0.37686637 -0.23054467
00000000: 0b87 16bf 5fd7 703e a101 3c3e 1351 b13c
00000010: f512 c2be 337f e7bd 7ae9 d43e 8751 5ebe
00000020: b741 17be 0b9e 7c3e 60aa 14bf d55c d6bd
00000030: 6a9b 21bf 28ba 5d3d 13c2 c83d 3ea0 053f
00000040: 90f4 a8be 645c b8be 5d61 a13e d488 103f
00000050: e0a4 87bc 3cac dcbe d5b4 d0be 7caa acbe
00000060: d8a6 303c 4bb0 173e 1c41 abbc 932b b63e
00000070: 4b87 8f3e 86a5 db3e 3e1a 15bf 872b 51bd
00000080: 7463 56bd 7805 af3d a1f4 c03e e713 6cbe

lstm.weight_hh_l0 f4 [12, 3]
0.22050871 -0.156082 0.10665679 -0.58732975 0.050121557 0.3814424 -0.13015835 0.32585862
0.29715633 -0.14396334 -0.48473218 0.35770264 -0.023914792 0.0029956098 0.547437 -0.2305268
-0.2609543 -0.3573304 0.427003 0.18259065 -0.4231445 -0.14012785 -0.5624722 0.50864017
0.06898205 -0.56142145 -0.4425089 -0.38296285 -0.23712909 -0.03665888 -0.19857985 0.21644562
0.07519089 0.4741746 0.46867192 -0.36379302
00000000: 09cd 613e f6d3 1fbe e06e da3d 3e5b 16bf
00000010: 434c 4d3d 6b4c c33e 3b48 05be f1d6 a63e
00000020: e024 983e 206b 13be d12e f8be cd24 b73e
00000030: f4e8 c3bc fe51 443b d524 0c3f 380f 6cbe
00000040: cd9b 85be 03f4 b6be 23a0 da3e 0bf9 3a3e
00000050: 65a6 d8be ad7d 0fbe 2efe 0fbf 3e36 023f
00000060: 7646 8d3d 51b9 0fbf 8790 e2be b513 c4be
00000070: f8d1 72be 9f27 16bd 8458 4bbe eca3 5d3e
00000080: aefd 993d 03c7 f23e c4f5 ef3e 1443 babe

lstm.bias_ih_l0 f4 [12]
-0.03192649 0.077712804 0.097612344 0.49651116 -0.16812055 0.2477014 0.29214394 0.5688565
0.39048445 -0.5569617 0.28864467 -0.40773547
00000000: 5ac5 02bd e427 9f3d fbe8 c73d b636 fe3e
00000010: cb27 2cbe 70a5 7d3e e493 953e 94a0 113f
00000020: 94ed c73e 0b95 0ebf 3cc9 933e b4c2 d0be

lstm.bias_hh_l0 f4 [12]
0.40812847 -0.42922556 0.38592404 0.089177325 -0.39901897 -0.18895131 -0.3062027 -0.0108023705
-0.16743761 -0.011952239 0.32552856 0.5322669
00000000: 37f6 d03e 74c3 dbbe d697 c53e 9aa2 b63d
00000010: 374c ccbe 747c 41be 9ac6 9cbe 6dfc 30bc
00000020: c474 2bbe 53d3 43bc aeab a63e a542 083f

lstm.weight_ih_l1 f4 [12, 3]
0.12573072 0.24955882 -0.23971747 0.58559734 -0.49474555 0.36292532 -0.16330548 0.48520702
0.21748236 -0.08929272 0.19114907 -0.50007534 0.74065316 -0.05696668 0.43967226 0.3193925
-0.054463625 -0.16887161 -0.11889335 -0.424754 -0.48665452 -0.21356806 0.494215 0.33100796
0.41039783 -0.022540173 -0.15131107 0.3625896 0.31957415 -0.013489559 0.21685222 0.46189213
-0.32469946 -0.2623661 -0.59903896 0.33760962
00000000: 8ebf 003e 598c 7f3e 7f78 75be b5e9 153f
00000010: 4a4f fdbe 59d1 b93e 8d39 27be 0e6d f83e
00000020: b2b3 5e3e 1adf b6bd 95bc 433e f004 00bf
00000030: 729b 3d3f e555 69bd b91c e13e 6a87 a33e
00000040: 4015 5fbd aeec 2cbe 5b7e f3bd 5b79 d9be
00000050: c82a f9be 96b1 5abe c009 fd3e e079 a93e
00000060: aa1f d23e 2ba6 b8bc 4af1 1abe 58a5 b93e
00000070: 399f a33e 5003 5dbc 820e 5e3e 207d ec3e
00000080: 023f a6be d954 86be 9e5a 19bf 2bdb ac3e

lstm.weight_hh_l1 f4 [12, 3]
-0.56159073 0.6562097 -0.05093298 0.21765508 0.20225744 0.58095634 -0.69425607 0.26234755
-0.28297228 0.018506013 0.07245021 0.77439904 -0.5883179 0.78510225 0.40516606 -0.10096185
-0.2617197 0.6391236 0.26163104 -0.19798705 0.1742502 0.20266902 -0.12246338 0.0095226355
0.32606563 0.0435685 0.45669436 -0.74511397 0.21686395 0.6421327 -0.29906493 0.23371509
0.42804936 0.22165063 0.40902504 0.47561184
00000000: 69c4 0fbf 5cfd 273f 1a9f 50bd f9e0 5e3e
00000010: 931c 4f3e 8eb9 143f c4ba 31bf 6b52 863e
00000020: bee1 90be ec99 973c c760 943d 043f 463f
00000030: 009c 16bf 76fc 483f ed71 cf3e 16c5 cebd
00000040: 2000 86be 9b9d 233f 81f4 853e 1ebd 4abe
00000050: a56e 323e 7888 4f3e 15ce fabd d404 1c3c
00000060: 13f2 a63e e274 323d d8d3 e93e cabf 3ebf
00000070: 9511 5e3e cf62 243f 0a1f 99be 0253 6f3e
00000080: 4929 db3e 62f8 623e bb6b d13e 6583 f33e

lstm.bias_ih_l1 f4 [12]
0.5021219 -0.19647698 0.6885073 0.66500235 0.8522897 0.5252204 -0.23869464 0.77066547
0.5728494 0.39263096 0.11293402 -0.130488
00000000: 108b 003f 4331 49be 0442 303f 983d 2a3f
00000010: a82f 5a3f d874 063f 5e6c 74be 554a 453f
00000020: 42a6 123f ed06 c93e f449 e73d a59e 05be

lstm.bias_hh_l1 f4 [12]
0.14281988 -0.093888 -0.26954624 -0.025980622 0.5156658 0.1253712 -0.5886588 0.22993252
0.82347757 -0.17836738 -0.0016847868 -0.022278521
00000000: 603f 123e 5a48 c0bd f701 8abe 50d5 d4bc
00000010: ad02 043f 4f61 003e 58b2 16bf 6e73 6b3e
00000020: 6dcf 523f f0a5 36be 10d4 dcba 7281 b6bc

fc.weight f4 [1, 3]
0.47440717 0.43191817 -0.4959064
00000000: 7fe5 f23e 6124 dd3e 72e7 fdbe
