policy_reinforce_gcn_lstm/save/model_trial_985_h3_lr0.00398_g0.964.pth (torch, 4920 bytes, 13 tensors)

conv1.bias f4 [3]
-0.100772075 -0.19240287 -0.17330584
00000000: 9761 cebd 4205 45be 1677 31be

conv1.lin.weight f4 [3, 4]
0.76280713 0.07775726 -1.1278242 0.041232016 -0.7106055 0.26161715 0.5656587 -0.8141832
-1.2232155 0.7584156 -0.22967605 0.47367015
00000000: 5447 433f 333f 9f3d 8b5c 90bf e7e2 283d
00000010: 3eea 35bf aff2 853e 02cf 103f 4f6e 50bf
00000020: 5392 9cbf 8627 423f 3330 6bbe e584 f23e

conv2.bias f4 [3]
0.0 0.0 0.0
00000000: 0000 0000 0000 0000 0000 0000

conv2.lin.weight f4 [3, 3]
0.022822976 0.9388169 0.73187697 -0.37461722 0.59738386 -0.2911197 0.15743637 -0.9530797
-0.61817586
00000000: 40f7 ba3c 4e56 703f 4a5c 3b3f d4cd bfbe
00000010: 26ee 183f a40d 95be 0037 213e 08fd 73bf
00000020: c640 1ebf

lstm.weight_ih_l0 f4 [12, 3]
0.06371476 -0.4797828 -0.015866216 -0.3698602 0.37421227 0.047229495 -0.06902914 -0.49537522
-0.2692178 -0.009007725 -0.056522578 -0.42603216 -0.4631686 -0.12661551 0.67055523 0.5155202
-0.26224747 0.23533346 -0.3418746 -0.21627915 0.10694449 -0.09303755 -0.20066072 -0.14362794
-0.01800861 -0.25597605 -0.29199243 0.1922195 -0.12242793 -0.18109122 0.012436783 0.28425616
0.37553868 0.22645159 -0.25392595 0.11399646
00000000: e27c 823d 17a6 f5be def9 81bc 515e bdbe
00000010: c098 bf3e b773 413d 265f 8dbd d2a1 fdbe
00000020: ead6 89be 2395 13bc 3884 67bd e320 dabe
00000030: 6f24 edbe 7fa7 01be 82a9 2b3f 22f9 033f
00000040: 4d45 86be 41fb 703e 300a afbe 4878 5dbe
00000050: b605 db3d 798a bebd 017a 4dbe 3413 13be
00000060: cb86 93bc 4b0f 83be 0880 95be 30d5 443e
00000070: 7fbb fabd fa6f 39be a6c3 4b3c 068a 913e
00000080: 9b46 c03e ede2 673e 9502 82be fa76 e93d

lstm.weight_hh_l0 f4 [12, 3]
0.13242021 -0.42060205 -0.3037689 0.0035425776 -0.1255939 0.48621005 -0.16287594 0.55235195
-0.19768308 -0.14943248 -0.29670015 0.3435039 -0.61949223 -0.393526 -0.4213239 0.24399963
-0.15869805 0.58092844 0.059932273 0.13069159 -0.36449623 -0.39002064 0.4565987 0.47179723
-0.6804457 0.23263127 0.0022013965 -0.71524596 -0.4927118 0.17499046 -0.11324385 0.2811108
-0.0355285 0.29531622 0.30008018 -0.32525322
00000000: 2a99 073e 2759 d7be 9987 9bbe 972a 683b
00000010: b09b 00be 86f0 f83e f3c8 26be f066 0d3f
00000020: 6f6d 4abe d404 19be 15e9 97be bedf af3e
00000030: 0b97 1ebf 3d7c c9be c4b7 d7be 0adb 793e
00000040: be81 22be bab7 143f 8b7b 753d 04d4 053e
00000050: 409f babe c9b0 c7be 4ec7 e93e 688f f13e
00000060: b031 2ebf e436 6e3e 4e45 103b 5c1a 37bf
00000070: b944 fcbe b330 333e 64ec e7bd c1ed 8f3e
00000080: 5586 11bd b033 973e 1ca4 993e 9787 a6be

lstm.bias_ih_l0 f4 [12]
-0.028123237 -0.25308466 -0.121823795 0.5759973 -0.20079954 -0.26735702 -0.27899927 0.12660833
0.5390649 0.7186606 0.33329415 0.46469706
00000000: b462 e6bc 5094 81be c17e f9bd 8f74 133f
00000010: 659e 4dbe 05e3 88be fed8 8ebe 9da5 013e
00000020: 2800 0a3f 24fa 373f 88a5 aa3e c6ec ed3e

lstm.bias_hh_l0 f4 [12]
0.15889397 0.38927135 0.10958022 -0.24635346 -0.47921816 -0.023043163 -0.68844116 0.3618388
0.5600905 0.5779029 -0.33347473 0.3460191
00000000: 1ab5 223e 934e c73e 986b e03d 1544 7cbe
00000010: 155c f5be 04c5 bcbc ae3d 30bf ef42 b93e
00000020: 1762 0f3f 72f1 133f 33bd aabe 6a29 b13e

lstm.weight_ih_l1 f4 [12, 3]
-0.16864507 -0.64871395 0.47930843 0.010962274 0.0022518977 0.6471448 -0.9873424 -0.40519947
0.24178803 -0.3205809 -0.10549505 0.280376 0.06597659 0.13053852 -0.035830155 -0.20475054
0.36824274 -0.09647643 0.80907965 -0.0850445 -0.25867942 -0.56433123 -0.18640262 0.24446493
-0.17120169 -0.47323036 0.2125727 -0.19857234 -0.32077023 0.4322291 -0.04104689 -0.37313458
0.4191436 -0.5788585 -0.512794 -0.10119573
00000000: 4bb1 2cbe 1e12 26bf ea67 f53e 1c9b 333c
00000010: 9394 133b 48ab 253f 79c2 7cbf 4e76 cfbe
00000020: 4897 773e 2e23 a4be ca0d d8bd 718d 8f3e
00000030: bc1e 873d e4ab 053e a4c2 12bd 20aa 51be
00000040: 508a bc3e 6f95 c5bd d81f 4f3f d02b aebd
00000050: a171 84be 0378 10bf 54e0 3ebe 0455 7a3e
00000060: 7f4f 2fbe 404b f2be a8ac 593e 8c56 4bbe
00000070: ff3b a4be 224d dd3e c920 28bd 7f0b bfbe
00000080: fd99 d63e 1230 14bf 7846 03bf b53f cfbd

lstm.weight_hh_l1 f4 [12, 3]
-0.651481 -0.026498068 0.04800395 -0.47354645 0.067971945 0.20554106 -0.86589944 0.2017358
-0.1935612 -0.496193 0.5250485 -0.091017105 -0.8432134 0.14446186 0.051469706 -0.11524831
0.06300322 0.12766178 0.7234834 -0.4190545 0.34070805 -0.63963246 0.13706031 -0.26107273
-0.35532644 0.33898264 0.33463743 -0.04809067 0.43311626 0.68526864 -0.80147004 0.73825604
-0.17150421 -0.43271163 0.43067756 0.44919032
00000000: 75c7 26bf 7a12 d9bc ca9f 443d ae74 f2be
00000010: e034 8b3d 5b79 523e 96ab 5dbf d493 4e3e
00000020: e834 46be 020d febe 9469 063f 2d67 babd
00000030: d5dc 57bf cfed 133e e6d1 523d 4e07 ecbd
00000040: d507 813d c5b9 023e 3536 393f 508e d6be
00000050: 4971 ae3e f4be 23bf 8a59 0c3e 53ab 85be
00000060: 59ed b5be 228f ad3e 9955 ab3e b9fa 44bd
00000070: 6ac1 dd3e c46d 2f3f 242d 4dbf 59fe 3c3f
00000080: cd9e 2fbe 618c ddbe c581 dc3e 46fc e53e

lstm.bias_ih_l1 f4 [12]
0.6792005 0.32575804 0.27183348 0.5411455 0.43245655 -0.20916085 -0.1517058 -0.22771399
0.50142914 0.7660301 0.25611988 0.83554256
00000000: 15e0 2d3f c2c9 a63e c22d 8b3e 8388 0a3f
00000010: f26a dd3e 432e 56be c458 1bbe db2d 69be
00000020: a95d 003f 8c1a 443f 2522 833e 1ee6 553f

lstm.bias_hh_l1 f4 [12]
-0.08884254 -0.009124131 0.2678695 0.3338231 0.42725587 0.6343825 -0.43102503 0.4739387
0.49440092 0.7880056 0.5324311 0.3155822
00000000: 14f3 b5bd 617d 15bc 3126 893e ddea aa3e
00000010: 48c1 da3e e466 223f 50af dcbe 18a8 f23e
00000020: 1e22 fd3e bcba 493f 684d 083f fd93 a13e

fc.weight f4 [1, 3]
0.43659863 -0.55154586 -0.008716614
00000000: db89 df3e 1c32 0dbf 21d0 0ebc
