policy_reinforce_gcn_lstm/save/model_trial_30_h4_lr0.00039_g0.980.pth (torch, 4735 bytes, 11 tensors)

conv1.bias f4 [4]
-0.012215593 -0.012871578 0.013364869 -0.012787704
00000000: e923 48bc 50e3 52bc 53f8 5a3c 8583 51bc

conv1.lin.weight f4 [4, 3]
0.8334078 -0.8668174 -0.45260113 -0.22533847 -0.1869437 0.39897612 -0.91343254 0.05770032
0.8169442 -0.918382 -0.774111 -0.30934417
00000000: 375a 553f bfe7 5dbf 56bb e7be 21bf 66be
00000010: 2b6e 3fbe 9946 cc3e b7d6 69bf 2c57 6c3d
00000020: 4123 513f 151b 6bbf 232c 46bf 5c62 9ebe

lstm.weight_ih_l0 f4 [16, 4]
-0.15071088 -0.0941387 0.3405469 -0.014901087 -0.17634667 -0.09224927 0.4803793 0.1389895
-0.1511948 0.3510617 0.030544613 -0.092796184 -0.11375278 0.28253597 0.45676327 0.39249855
0.2402795 0.21552128 -0.28285855 -0.21919861 -0.1472825 0.47275522 0.3694635 0.046049956
0.051114928 -0.014441838 0.056527477 -0.052334968 -0.13750917 -0.26591557 -0.44748086 0.34952492
0.21770413 0.16274285 0.3310178 -0.12817585 0.13814852 0.2306868 -0.46335068 0.13543867
-0.46373284 -0.3060543 -0.33580709 0.052736435 -0.2681933 0.46723175 0.010825038 0.08087736
0.17276923 -0.2928641 0.42884737 0.31253812 0.44644964 -0.42853436 -0.40288562 0.32555863
0.3512222 0.45115307 -0.094843544 0.3191619 0.41838437 -0.15152937 0.3580578 0.38197184
00000000: f453 1abe cacb c0bd 2a5c ae3e b023 74bc
00000010: 3994 34be 2fed bcbd 47f4 f53e 4353 0e3e
00000020: cfd2 1abe 5cbe b33e b238 fa3c ed0b bebd
00000030: 38f7 e8bd 8ea8 903e e0dc e93e 92f5 c83e
00000040: d40b 763e 9cb1 5c3e d6d2 90be 9a75 60be
00000050: 39d1 16be f90c f23e 522a bd3e e19e 3c3d
00000060: e35d 513d 759d 6cbc 5b89 673d 315d 56bd
00000070: 34cf 0cbe 1626 88be 361c e5be eef4 b23e
00000080: d5ed 5e3e 10a6 263e 2a7b a93e 8840 03be
00000090: ce76 0d3e 2939 6c3e 4d3c edbe 6fb0 0a3e
000000a0: 646e edbe 26b3 9cbe e8ee abbe 2902 583d
000000b0: a250 89be 0039 ef3e 805b 313c 08a3 a53d
000000c0: 6bea 303e 49f2 95be e291 db3e ff04 a03e
000000d0: 0c95 e43e db68 dbbe 0647 cebe 9faf a63e
000000e0: 65d3 b33e 89fd e63e 553d c2bd 3069 a33e
000000f0: 7a36 d63e 842a 1bbe 5a53 b73e d091 c33e

lstm.weight_hh_l0 f4 [16, 4]
-0.17659765 0.15313089 -0.3127058 -0.060805917 0.2662089 -0.06254256 0.47861823 -0.4231258
-0.123256624 0.4444447 0.40295777 -0.2852592 0.06403613 0.41035348 0.09877938 -0.4160257
0.42750078 -0.08992255 -0.057786703 -0.10735339 -0.05014819 0.05351311 0.22998863 0.34654915
-0.048662722 -0.3774846 0.49216315 0.1002506 0.39240724 -0.004181266 0.49746913 0.351165
-0.35280305 0.22458583 -0.17861557 -0.32975525 -0.018571973 -0.29095984 -0.26458293 0.26053923
0.4228269 0.49162155 -0.12695199 0.22928327 0.28415447 0.35634202 0.17613697 0.29414982
0.03277421 0.24858004 0.3281415 -0.22433788 -0.49377882 -0.4069181 0.37300658 -0.24604905
-0.42745924 0.024818154 -0.2158105 0.07592994 -0.1382606 0.2631234 -0.37277073 -0.44089454
00000000: 04d6 34be 58ce 1c3e fa1a a0be a00f 79bd
00000010: 884c 883e 5016 80bd 730d f53e f2a3 d8be
00000020: f86d fcbd 418e e33e 7b50 ce3e 7e0d 92be
00000030: 6025 833d da19 d23e d84c ca3d 5201 d5be
00000040: 62e1 da3e 5029 b8bd c0b1 6cbd 18dc dbbd
00000050: 3068 4dbd 9030 5b3d 2482 6b3e e46e b13e
00000060: 9052 47bd a945 c1be cffc fb3e 3050 cd3d
00000070: 9ae9 c83e 0003 89bb 46b4 fe3e e6cb b33e
00000080: 9aa2 b4be d4f9 653e 00e7 36be aed5 a8be
00000090: 4024 98bc b0f8 94be 6a77 87be 6665 853e
000000a0: c47c d83e d2b5 fb3e b4ff 01be 3cc9 6a3e
000000b0: b27c 913e 7672 b63e 405d 343e ce9a 963e
000000c0: 403e 063d c48b 7e3e 2a02 a83e d4b8 65be
000000d0: 94d0 fcbe 9257 d0be b8fa be3e 48f4 7bbe
000000e0: f0db dabe 714f cb3c 6dfd 5cbe 2881 9b3d
000000f0: 3094 0dbe 1cb8 863e cedb bebe eebc e1be

lstm.bias_ih_l0 f4 [16]
0.032111164 -0.12699664 -0.3354127 0.3299234 -0.28651083 0.008203383 0.35062972 -0.13442582
-0.2738189 0.22969876 0.21751946 0.19392103 -0.16440809 -0.49257517 -0.21380445 -0.06252742
00000000: ff86 033d 680b 02be 37bb abbe b8eb a83e
00000010: 8cb1 92be 7b67 063c bd85 b33e eca6 09be
00000020: fe31 8cbe 2736 6b3e 6cbd 5e3e 3c93 463e
00000030: 985a 28be d032 fcbe 8eef 5abe 600e 80bd

lstm.bias_hh_l0 f4 [16]
0.46003032 0.11436673 0.25633278 -0.30795044 0.4124875 -0.19814253 0.2605628 -0.24809283
0.24701273 -0.083892845 -0.15310907 0.42611605 -0.13655514 -0.03552006 0.14990029 0.44558007
00000000: 1889 eb3e 1b39 ea3d 0d3e 833e aeab 9dbe
00000010: 9031 d33e e0e5 4abe 7d68 853e 0c0c 7ebe
00000020: e8f0 7c3e 03d0 abbd a0c8 1cbe e22b da3e
00000030: 1cd5 0bbe 7c7d 11bd 767f 193e 1223 e43e

lstm.weight_ih_l1 f4 [16, 4]
-0.13558854 0.22111405 -0.43892667 0.14733666 0.2469656 -0.4559208 0.0050662626 -0.46903104
-0.004860914 0.07882545 -0.20405732 -0.4395544 0.48097026 -0.17181839 0.34188285 -0.025389075
-0.024749784 0.08742224 -0.20776325 -0.45724875 -0.22825739 -0.34233144 -0.1744292 0.14862233
-0.49165937 0.23242989 -0.3531173 0.44348443 0.04816664 0.39378995 -0.17963222 -0.017635643
0.0064229155 0.3475335 -0.13272412 0.4849221 0.17577076 -0.454803 -0.11583671 -0.17390883
-0.39304546 0.10811461 0.2712865 0.39408177 -0.40968502 -0.03005118 -0.3543054 0.42194313
0.35520905 0.14201318 0.4117326 -0.43244648 -0.16385937 -0.19181414 -0.091669664 0.05428052
0.48261315 -0.3973949 -0.15185948 0.28644824 -0.07128461 -0.35038206 -0.45388502 0.31857538
00000000: b9d7 0abe b96b 623e ffba e0be 6cdf 163e
00000010: 8de4 7c3e 736e e9be e402 a63b d624 f0be
00000020: 4d48 9fbb 3d6f a13d 67f4 50be 460d e1be
00000030: bc41 f63e 29f1 2fbe 450b af3e c0fc cfbc
00000040: 0fc0 cabc 6e0a b33d e4bf 54be 821c eabe
00000050: 4ebc 69be 1146 afbe 919d 32be 7430 183e
00000060: c7ba fbbe 1a02 6e3e cacb b4be 6410 e33e
00000070: 624a 453d d69e c93e 82f1 37be a078 90bc
00000080: 5277 d23b e9ef b13e d5e8 07be b647 f83e
00000090: 40fd 333e f0db e8be cc3b edbd 2815 32be
000000a0: 413d c9be 316b dd3d 10e6 8a3e 16c5 c93e
000000b0: 3cc2 d1be e42d f6bc 8467 b5be ee08 d83e
000000c0: f6dd b53e e76b 113e 9ece d23e a069 ddbe
000000d0: c0ca 27be ed6a 44be 4ebd bbbd 4055 5e3d
000000e0: 1219 f73e 5877 cbbe 0d81 1bbe 58a9 923e
000000f0: aafd 91bd 4765 b3be 9e63 e8be 501c a33e

lstm.weight_hh_l1 f4 [16, 4]
0.3125818 0.32697913 0.04730108 0.4263715 0.46243805 0.1945847 -0.016240662 0.49213567
0.1306143 -0.04440706 -0.085344106 0.41113353 -0.46089986 0.07635027 0.46084192 0.17854059
0.27883473 -0.2199398 0.031349592 -0.0919072 -0.12254147 0.111125216 0.3891551 0.45935532
0.46436495 -0.31523725 -0.28521213 -0.25440955 -0.2464228 0.10741583 -0.4032663 0.50670344
0.074213356 0.26646298 0.44035685 0.49516073 0.23766293 0.5516507 0.081165746 0.55198604
-0.30382425 -0.1373629 0.3659163 0.3392033 -0.4365959 0.09806257 -0.39139006 0.3154066
-0.22320636 -0.084035985 0.5271168 0.40493953 -0.30772436 0.28334698 -0.24257801 0.38285264
0.28830007 -0.4818886 -0.36955932 -0.20763464 -0.32648203 -0.04625147 0.004519194 0.5035554
00000000: b90a a03e cf69 a73e c7be 413d 5e4d da3e
00000010: aec4 ec3e 3641 473e 230b 85bc 35f9 fb3e
00000020: c1bf 053e 2de4 35bd e4c8 aebd 1880 d23e
00000030: 11fb ebbe 885d 9c3d 79f3 eb3e 58d3 363e
00000040: 6dc3 8e3e e637 61be 6e68 003d d839 bcbd
00000050: 06f7 fabd 9e95 e33d 563f c73e 9f30 eb3e
00000060: 3ec1 ed3e c766 a1be 5307 92be f841 82be
00000070: 4256 7cbe d5fc db3d ec78 cebe 51b7 013f
00000080: 2cfd 973d d66d 883e 7476 e13e b585 fd3e
00000090: e95d 733e fb38 0d3f 3a3a a63d f54e 0d3f
000000a0: da8e 9bbe dca8 0cbe 6259 bb3e 0eac ad3e
000000b0: 7f89 dfbe 07d5 c83d 4764 c8be f97c a13e
000000c0: 3590 64be 0f1b acbd 20f1 063f 3c54 cf3e
000000d0: 0c8e 9dbe db12 913e 5f66 78be 4305 c43e
000000e0: 119c 933e 1aba f6be e136 bdbe 2d9e 54be
000000f0: a728 a7be 2e72 3dbd bf15 943b 02e9 003f

lstm.bias_ih_l1 f4 [16]
-0.2627643 0.14190811 -0.47526306 0.27410176 -0.09122812 0.41307756 0.495094 -0.008694128
0.3474412 0.5465008 0.37231386 -0.38802323 0.30378443 -0.2822404 0.14699107 -0.21417327
00000000: 0b89 86be 5c50 113e ae55 f3be 1157 8c3e
00000010: cfd5 babd e77e d33e f67c fd3e d171 0ebc
00000020: d0e3 b13e 7ae7 0b3f ec9f be3e fbaa c6be
00000030: a289 9b3e d081 90be d484 163e 3d50 5bbe

lstm.bias_hh_l1 f4 [16]
0.410466 0.015172394 -0.27999973 0.20257242 -0.0522775 0.3172725 0.18344806 0.061015163
-0.022775708 0.36764997 0.11064691 0.5408674 -0.12472057 -0.43332785 0.024264686 0.056434534
00000000: 9928 d23e a295 783c 205c 8fbe 256f 4f3e
00000010: ef20 56bd 8b71 a23e cfd9 3b3e 09eb 793d
00000020: 1f94 babc 9e3c bc3e d99a e23d 4976 0a3f
00000030: 806d ffbd 26dd ddbe bcc6 c63c e627 673d

fc.weight f4 [1, 4]
0.018728852 -0.10647929 -0.35719758 0.27378017
00000000: 406d 993c d011 dabd 9ae2 b6be ea2c 8c3e
