policy_reinforce_gcn_lstm/save/model_trial_366_h3_lr0.00010_g0.978.pth (torch, 4920 bytes, 13 tensors)

conv1.bias f4 [3]
0	0x3c41d77f	0.011831163
1	0xbc1ea4ff	-0.009682893
2	0xbc22bd79	-0.009932869

conv1.lin.weight f4 [3, 4]
0	0xbebeb603	-0.3724824
1	0xbf2f7d3b	-0.6855046
2	0xbf3b7e15	-0.7323926
3	0x3f286e4a	0.6579329
4	0x3f57a22b	0.84231824
5	0xbf0363ba	-0.51324046
6	0x3d361778	0.044455975
7	0xbf4bdd83	-0.79634875
8	0x3e0f1ce3	0.13975863
9	0xbe8c23c3	-0.27371034
10	0x3ec52f1e	0.3851251
11	0xbf654c8f	-0.89569944

conv2.bias f4 [3]
0	0x00000000	0.0
1	0x00000000	0.0
2	0x00000000	0.0

conv2.lin.weight f4 [3, 3]
0	0x3f004e24	0.50119233
1	0xbebd0e60	-0.3692503
2	0x3f2a0bcc	0.6642425
3	0xbeaf0280	-0.34181595
4	0x3de9fa50	0.114246964
5	0x3e5ffad0	0.21873021
6	0xbee2f020	-0.44323826
7	0x3eb5e554	0.35526526
8	0xbf59720a	-0.84939635

lstm.weight_ih_l0 f4 [12, 3]
0	0xbc251abc	-0.010077175
1	0x3e328ddd	0.17436929
2	0xbde7d6fa	-0.113203004
3	0xbeb1fa3c	-0.34761226
4	0xbe071588	-0.13191807
5	0x3e489af0	0.19590354
6	0xbf058f1f	-0.5217151
7	0x3e946d8f	0.28989837
8	0xbe8f05f3	-0.27934226
9	0x3e69d659	0.22835673
10	0xbf09bbd8	-0.5380225
11	0xbe619c5f	-0.22032307
12	0xbec9fec6	-0.3945219
13	0xbd8dd82c	-0.06925997
14	0x3ee20d71	0.4415088
15	0x3f0105e5	0.5039962
16	0x3d066a71	0.032816354
17	0x3ce7fbf0	0.028318375
18	0x3f0a8b52	0.54118836
19	0xbe57b0ae	-0.21063492
20	0x3ed69922	0.41913706
21	0xbedcb7e8	-0.4310906
22	0xbdaaa70c	-0.08332643
23	0x3eebf05d	0.4608182
24	0x3eb06686	0.3445322
25	0x3b50df32	0.0031871316
26	0x3e90241b	0.28152546
27	0x3dfd2db7	0.12362235
28	0xbe8ce3dc	-0.27517593
29	0xbf020ef5	-0.5080407
30	0x3db468bc	0.08809039
31	0xbd9121e7	-0.070865445
32	0xbf0c2f5a	-0.5475975
33	0x3e533785	0.20626648
34	0x3e20e025	0.15710504
35	0xbdbd174f	-0.092329614

lstm.weight_hh_l0 f4 [12, 3]
0	0x3e91aa36	0.28450173
1	0x3e943ba5	0.28951755
2	0x3f0bc615	0.54599124
3	0xbe6873e1	-0.22700454
4	0x3e90b656	0.2826411
5	0x3df043db	0.117316924
6	0xbe940aa7	-0.28914377
7	0xbe639461	-0.22224571
8	0xbea2168f	-0.31657836
9	0xbf08e9a3	-0.534815
10	0xbea792a5	-0.32729068
11	0xbe0384fa	-0.12843695
12	0x3ea4483d	0.32086363
13	0xbe87133e	-0.26381868
14	0x3e73e186	0.23816499
15	0xbdcac201	-0.099002846
16	0x3f0d612a	0.55226386
17	0x3ec16bf1	0.37777665
18	0xbe2059b6	-0.15659222
19	0xbe0c93f0	-0.13728309
20	0x3f09908b	0.5373618
21	0xbf0ea634	-0.55722356
22	0x3dea3474	0.11435786
23	0xbc0ef359	-0.008725011
24	0x3d8664c6	0.0656219
25	0x3e408ac4	0.18802935
26	0xbeb366d8	-0.350394
27	0x3c8b44bc	0.017000549
28	0xbece3ee7	-0.40282366
29	0xbefb4f7a	-0.49084073
30	0xbeba3fd7	-0.3637683
31	0x3ee0b084	0.4388467
32	0x3f0d99ed	0.55313
33	0x3dcd0a46	0.10011725
34	0x3f105fea	0.56396353
35	0x3f01e97f	0.5074691

lstm.bias_ih_l0 f4 [12]
0	0x3ed0a090	0.407475
1	0x3f06798e	0.5252923
2	0xbdb2beba	-0.087277845
3	0xbe39d16f	-0.18146299
4	0xbe1eb2be	-0.15497872
5	0x3ee39f71	0.44457582
6	0xbd02c2ea	-0.031924166
7	0x3e344093	0.17602758
8	0x3ef391f1	0.47572282
9	0x3de61c8b	0.11235913
10	0xbf03ee7c	-0.51535773
11	0xbcf86167	-0.030319883

lstm.bias_hh_l0 f4 [12]
0	0xbc05b2fd	-0.00816035
1	0x3e899f34	0.26879275
2	0x3ef6c11a	0.481942
3	0x3d515b25	0.051112313
4	0xbed65ad6	-0.41866177
5	0x3e690c1a	0.22758523
6	0xbdcb3834	-0.09922829
7	0x3d2a0703	0.041510593
8	0x3de884de	0.113534674
9	0xbe1770b1	-0.14789082
10	0xbf117086	-0.5681232
11	0xbdb09953	-0.08622994

lstm.weight_ih_l1 f4 [12, 3]
0	0xbed669dd	-0.41877642
1	0x3eff3dfc	0.49851978
2	0xbedb1e94	-0.42796767
3	0xbdf070f2	-0.117402926
4	0x3ce84b30	0.028356165
5	0xbedf3f16	-0.43602818
6	0xbe33f399	-0.17573394
7	0x3f0747c0	0.52843857
8	0x3af082aa	0.0018349488
9	0xbd887991	-0.06663812
10	0xbf10a730	-0.5650511
11	0xbde515b1	-0.11185778
12	0x3dc605c3	0.09669068
13	0xbee0b1ab	-0.4388555
14	0x3d5a4c6a	0.05329553
15	0xbebc0cb5	-0.36728445
16	0x3d958968	0.07301599
17	0x3de7f69b	0.11326333
18	0xbeaabac1	-0.33345607
19	0x3dc2d42f	0.09513127
20	0xbd2d5e82	-0.042326458
21	0xbf119935	-0.568744
22	0xbeecfd66	-0.46287078
23	0x3e1297df	0.14315747
24	0xbe5c3549	-0.21504702
25	0xbeca9ed0	-0.3957429
26	0xbf0e83d0	-0.5566988
27	0xbcf78abb	-0.030217519
28	0xbea46d99	-0.32114866
29	0x3dbcead4	0.092244774
30	0x3d968082	0.0734873
31	0x3e17e951	0.14835097
32	0x3efcc3ff	0.49368283
33	0x3ecdbac9	0.40181568
34	0x3db1e2a7	0.08685809
35	0x3eb923eb	0.36160216

lstm.weight_hh_l1 f4 [12, 3]
0	0x3ea76a7f	0.32698438
1	0xbe635007	-0.22198497
2	0x3f014011	0.5048838
3	0x3ddcf6b3	0.10789242
4	0x3f0e2844	0.5553019
5	0x3e5f3be1	0.21800186
6	0xbe917ae0	-0.2841406
7	0xbde5871b	-0.1120741
8	0x3e88d46c	0.26724565
9	0xbdddb3e4	-0.10825327
10	0xbe629ce4	-0.22130162
11	0x3e5c3832	0.21505812
12	0xbf08ad7c	-0.53389716
13	0xbe8ede91	-0.2790418
14	0xbeccc8d2	-0.39996964
15	0xbd29d036	-0.04145833
16	0xbde17e52	-0.11010422
17	0xbe3dc86f	-0.1853349
18	0xbd475c29	-0.048671875
19	0xbec8a670	-0.39189482
20	0xbee5a8dc	-0.44855392
21	0x3f07b1b7	0.53005546
22	0x3ef600e7	0.48047563
23	0x3efe3f99	0.49657896
24	0x3e628b75	0.22123511
25	0xbe769c20	-0.24082994
26	0xbef2803e	-0.47363466
27	0xbe4c46ad	-0.19948836
28	0xbe16c17b	-0.14722244
29	0xbf0c6169	-0.54836136
30	0x3eee587d	0.46551886
31	0x3e11e204	0.14246374
32	0xbf0f0d29	-0.55879456
33	0x3d8999a8	0.06718761
34	0xbe05f427	-0.13081418
35	0x3f0bf82e	0.5467557

lstm.bias_ih_l1 f4 [12]
0	0x3d978477	0.073983125
1	0xbe039f03	-0.12853627
2	0xbee075aa	-0.4383977
3	0x3dc26583	0.09492018
4	0xbeb1743d	-0.34658995
5	0x3eb30724	0.34966385
6	0x3f09c973	0.5382301
7	0x3de55eac	0.11199698
8	0x3e9adad7	0.30245087
9	0x3ee6d01c	0.4508065
10	0xbf06e727	-0.5269646
11	0xbe207018	-0.1566776

lstm.bias_hh_l1 f4 [12]
0	0x3f162d87	0.5866322
1	0xbe89f6d7	-0.26946136
2	0x3eee4c73	0.465427
3	0xbf081258	-0.5315299
4	0xbe7ccfc7	-0.24688636
5	0xbef75380	-0.48305893
6	0xbd61badf	-0.055109855
7	0xbe5381b3	-0.20654945
8	0x3f14e822	0.58166707
9	0xbe19da1d	-0.1502461
10	0xbea2a4b4	-0.31766284
11	0xbe59f6df	-0.2128558

fc.weight f4 [1, 3]
0	0xbeb3c271	-0.35109285
1	0x3e394f24	0.18096596
2	0x3eb0e90f	0.3455281
